{"modelTopology": {"training_config": {"metrics": ["accuracy"], "loss": "binary_crossentropy", "optimizer_config": {"class_name": "Nadam", "config": {"beta_1": 0.8999999761581421, "epsilon": 1e-07, "schedule_decay": 0.004, "beta_2": 0.9990000128746033, "lr": 9.999999747378752e-05}}, "loss_weights": null, "sample_weight_mode": null}, "keras_version": "2.2.4", "model_config": {"class_name": "Sequential", "config": {"layers": [{"class_name": "Model", "config": {"layers": [{"class_name": "InputLayer", "inbound_nodes": [], "config": {"dtype": "float32", "batch_input_shape": [null, 224, 224, 3], "name": "input_1", "sparse": false}, "name": "input_1"}, {"class_name": "ZeroPadding2D", "inbound_nodes": [[["input_1", 0, 0, {}]]], "config": {"padding": [[0, 1], [0, 1]], "trainable": true, "data_format": "channels_last", "name": "Conv1_pad"}, "name": "Conv1_pad"}, {"class_name": "Conv2D", "inbound_nodes": [[["Conv1_pad", 0, 0, {}]]], "config": {"kernel_initializer": {"class_name": "VarianceScaling", "config": {"distribution": "uniform", "scale": 1.0, "seed": null, "mode": "fan_avg"}}, "kernel_constraint": null, "bias_regularizer": null, "bias_constraint": null, "activation": "linear", "trainable": true, "data_format": "channels_last", "padding": "valid", "strides": [2, 2], "dilation_rate": [1, 1], "kernel_regularizer": null, "filters": 32, "bias_initializer": {"class_name": "Zeros", "config": {}}, "use_bias": false, "activity_regularizer": null, "kernel_size": [3, 3], "name": "Conv1"}, "name": "Conv1"}, {"class_name": "BatchNormalization", "inbound_nodes": [[["Conv1", 0, 0, {}]]], "config": {"beta_constraint": null, "beta_regularizer": null, "moving_mean_initializer": {"class_name": "Zeros", "config": {}}, "center": true, "epsilon": 0.001, "trainable": true, "moving_variance_initializer": {"class_name": "Ones", "config": {}}, "beta_initializer": {"class_name": "Zeros", "config": {}}, "gamma_initializer": {"class_name": "Ones", "config": {}}, "scale": true, "axis": -1, "gamma_constraint": null, "gamma_regularizer": null, "momentum": 0.999, "name": "bn_Conv1"}, "name": "bn_Conv1"}, {"class_name": "ReLU", "inbound_nodes": [[["bn_Conv1", 0, 0, {}]]], "config": {"threshold": 0.0, "max_value": 6.0, "trainable": true, "name": "Conv1_relu", "negative_slope": 0.0}, "name": "Conv1_relu"}, {"class_name": "DepthwiseConv2D", "inbound_nodes": [[["Conv1_relu", 0, 0, {}]]], "config": {"use_bias": false, "depthwise_initializer": {"class_name": "VarianceScaling", "config": {"distribution": "uniform", "scale": 1.0, "seed": null, "mode": "fan_avg"}}, "trainable": true, "name": "expanded_conv_depthwise", "bias_regularizer": null, "bias_constraint": null, "activation": "linear", "depthwise_constraint": null, "data_format": "channels_last", "padding": "same", "strides": [1, 1], "dilation_rate": [1, 1], "bias_initializer": {"class_name": "Zeros", "config": {}}, "depthwise_regularizer": null, "activity_regularizer": null, "kernel_size": [3, 3], "depth_multiplier": 1}, "name": "expanded_conv_depthwise"}, {"class_name": "BatchNormalization", "inbound_nodes": [[["expanded_conv_depthwise", 0, 0, {}]]], "config": {"beta_constraint": null, "beta_regularizer": null, "moving_mean_initializer": {"class_name": "Zeros", "config": {}}, "center": true, "epsilon": 0.001, "trainable": true, "moving_variance_initializer": {"class_name": "Ones", "config": {}}, "beta_initializer": {"class_name": "Zeros", "config": {}}, "gamma_initializer": {"class_name": "Ones", "config": {}}, "scale": true, "axis": -1, "gamma_constraint": null, "gamma_regularizer": null, "momentum": 0.999, "name": "expanded_conv_depthwise_BN"}, "name": "expanded_conv_depthwise_BN"}, {"class_name": "ReLU", "inbound_nodes": [[["expanded_conv_depthwise_BN", 0, 0, {}]]], "config": {"threshold": 0.0, "max_value": 6.0, "trainable": true, "name": "expanded_conv_depthwise_relu", "negative_slope": 0.0}, "name": "expanded_conv_depthwise_relu"}, {"class_name": "Conv2D", "inbound_nodes": [[["expanded_conv_depthwise_relu", 0, 0, {}]]], "config": {"kernel_initializer": {"class_name": "VarianceScaling", "config": {"distribution": "uniform", "scale": 1.0, "seed": null, "mode": "fan_avg"}}, "kernel_constraint": null, "bias_regularizer": null, "bias_constraint": null, "activation": "linear", "trainable": true, "data_format": "channels_last", "padding": "same", "strides": [1, 1], "dilation_rate": [1, 1], "kernel_regularizer": null, "filters": 16, "bias_initializer": {"class_name": "Zeros", "config": {}}, "use_bias": false, "activity_regularizer": null, "kernel_size": [1, 1], "name": "expanded_conv_project"}, "name": "expanded_conv_project"}, {"class_name": "BatchNormalization", "inbound_nodes": [[["expanded_conv_project", 0, 0, {}]]], "config": {"beta_constraint": null, "beta_regularizer": null, "moving_mean_initializer": {"class_name": "Zeros", "config": {}}, "center": true, "epsilon": 0.001, "trainable": true, "moving_variance_initializer": {"class_name": "Ones", "config": {}}, "beta_initializer": {"class_name": "Zeros", "config": {}}, "gamma_initializer": {"class_name": "Ones", "config": {}}, "scale": true, "axis": -1, "gamma_constraint": null, "gamma_regularizer": null, "momentum": 0.999, "name": "expanded_conv_project_BN"}, "name": "expanded_conv_project_BN"}, {"class_name": "Conv2D", "inbound_nodes": [[["expanded_conv_project_BN", 0, 0, {}]]], "config": {"kernel_initializer": {"class_name": "VarianceScaling", "config": {"distribution": "uniform", "scale": 1.0, "seed": null, "mode": "fan_avg"}}, "kernel_constraint": null, "bias_regularizer": null, "bias_constraint": null, "activation": "linear", "trainable": true, "data_format": "channels_last", "padding": "same", "strides": [1, 1], "dilation_rate": [1, 1], "kernel_regularizer": null, "filters": 96, "bias_initializer": {"class_name": "Zeros", "config": {}}, "use_bias": false, "activity_regularizer": null, "kernel_size": [1, 1], "name": "block_1_expand"}, "name": "block_1_expand"}, {"class_name": "BatchNormalization", "inbound_nodes": [[["block_1_expand", 0, 0, {}]]], "config": {"beta_constraint": null, "beta_regularizer": null, "moving_mean_initializer": {"class_name": "Zeros", "config": {}}, "center": true, "epsilon": 0.001, "trainable": true, "moving_variance_initializer": {"class_name": "Ones", "config": {}}, "beta_initializer": {"class_name": "Zeros", "config": {}}, "gamma_initializer": {"class_name": "Ones", "config": {}}, "scale": true, "axis": -1, "gamma_constraint": null, "gamma_regularizer": null, "momentum": 0.999, "name": "block_1_expand_BN"}, "name": "block_1_expand_BN"}, {"class_name": "ReLU", "inbound_nodes": [[["block_1_expand_BN", 0, 0, {}]]], "config": {"threshold": 0.0, "max_value": 6.0, "trainable": true, "name": "block_1_expand_relu", "negative_slope": 0.0}, "name": "block_1_expand_relu"}, {"class_name": "ZeroPadding2D", "inbound_nodes": [[["block_1_expand_relu", 0, 0, {}]]], "config": {"padding": [[0, 1], [0, 1]], "trainable": true, "data_format": "channels_last", "name": "block_1_pad"}, "name": "block_1_pad"}, {"class_name": "DepthwiseConv2D", "inbound_nodes": [[["block_1_pad", 0, 0, {}]]], "config": {"use_bias": false, "depthwise_initializer": {"class_name": "VarianceScaling", "config": {"distribution": "uniform", "scale": 1.0, "seed": null, "mode": "fan_avg"}}, "trainable": true, "name": "block_1_depthwise", "bias_regularizer": null, "bias_constraint": null, "activation": "linear", "depthwise_constraint": null, "data_format": "channels_last", "padding": "valid", "strides": [2, 2], "dilation_rate": [1, 1], "bias_initializer": {"class_name": "Zeros", "config": {}}, "depthwise_regularizer": null, "activity_regularizer": null, "kernel_size": [3, 3], "depth_multiplier": 1}, "name": "block_1_depthwise"}, {"class_name": "BatchNormalization", "inbound_nodes": [[["block_1_depthwise", 0, 0, {}]]], "config": {"beta_constraint": null, "beta_regularizer": null, "moving_mean_initializer": {"class_name": "Zeros", "config": {}}, "center": true, "epsilon": 0.001, "trainable": true, "moving_variance_initializer": {"class_name": "Ones", "config": {}}, "beta_initializer": {"class_name": "Zeros", "config": {}}, "gamma_initializer": {"class_name": "Ones", "config": {}}, "scale": true, "axis": -1, "gamma_constraint": null, "gamma_regularizer": null, "momentum": 0.999, "name": "block_1_depthwise_BN"}, "name": "block_1_depthwise_BN"}, {"class_name": "ReLU", "inbound_nodes": [[["block_1_depthwise_BN", 0, 0, {}]]], "config": {"threshold": 0.0, "max_value": 6.0, "trainable": true, "name": "block_1_depthwise_relu", "negative_slope": 0.0}, "name": "block_1_depthwise_relu"}, {"class_name": "Conv2D", "inbound_nodes": [[["block_1_depthwise_relu", 0, 0, {}]]], "config": {"kernel_initializer": {"class_name": "VarianceScaling", "config": {"distribution": "uniform", "scale": 1.0, "seed": null, "mode": "fan_avg"}}, "kernel_constraint": null, "bias_regularizer": null, "bias_constraint": null, "activation": "linear", "trainable": true, "data_format": "channels_last", "padding": "same", "strides": [1, 1], "dilation_rate": [1, 1], "kernel_regularizer": null, "filters": 24, "bias_initializer": {"class_name": "Zeros", "config": {}}, "use_bias": false, "activity_regularizer": null, "kernel_size": [1, 1], "name": "block_1_project"}, "name": "block_1_project"}, {"class_name": "BatchNormalization", "inbound_nodes": [[["block_1_project", 0, 0, {}]]], "config": {"beta_constraint": null, "beta_regularizer": null, "moving_mean_initializer": {"class_name": "Zeros", "config": {}}, "center": true, "epsilon": 0.001, "trainable": true, "moving_variance_initializer": {"class_name": "Ones", "config": {}}, "beta_initializer": {"class_name": "Zeros", "config": {}}, "gamma_initializer": {"class_name": "Ones", "config": {}}, "scale": true, "axis": -1, "gamma_constraint": null, "gamma_regularizer": null, "momentum": 0.999, "name": "block_1_project_BN"}, "name": "block_1_project_BN"}, {"class_name": "Conv2D", "inbound_nodes": [[["block_1_project_BN", 0, 0, {}]]], "config": {"kernel_initializer": {"class_name": "VarianceScaling", "config": {"distribution": "uniform", "scale": 1.0, "seed": null, "mode": "fan_avg"}}, "kernel_constraint": null, "bias_regularizer": null, "bias_constraint": null, "activation": "linear", "trainable": true, "data_format": "channels_last", "padding": "same", "strides": [1, 1], "dilation_rate": [1, 1], "kernel_regularizer": null, "filters": 144, "bias_initializer": {"class_name": "Zeros", "config": {}}, "use_bias": false, "activity_regularizer": null, "kernel_size": [1, 1], "name": "block_2_expand"}, "name": "block_2_expand"}, {"class_name": "BatchNormalization", "inbound_nodes": [[["block_2_expand", 0, 0, {}]]], "config": {"beta_constraint": null, "beta_regularizer": null, "moving_mean_initializer": {"class_name": "Zeros", "config": {}}, "center": true, "epsilon": 0.001, "trainable": true, "moving_variance_initializer": {"class_name": "Ones", "config": {}}, "beta_initializer": {"class_name": "Zeros", "config": {}}, "gamma_initializer": {"class_name": "Ones", "config": {}}, "scale": true, "axis": -1, "gamma_constraint": null, "gamma_regularizer": null, "momentum": 0.999, "name": "block_2_expand_BN"}, "name": "block_2_expand_BN"}, {"class_name": "ReLU", "inbound_nodes": [[["block_2_expand_BN", 0, 0, {}]]], "config": {"threshold": 0.0, "max_value": 6.0, "trainable": true, "name": "block_2_expand_relu", "negative_slope": 0.0}, "name": "block_2_expand_relu"}, {"class_name": "DepthwiseConv2D", "inbound_nodes": [[["block_2_expand_relu", 0, 0, {}]]], "config": {"use_bias": false, "depthwise_initializer": {"class_name": "VarianceScaling", "config": {"distribution": "uniform", "scale": 1.0, "seed": null, "mode": "fan_avg"}}, "trainable": true, "name": "block_2_depthwise", "bias_regularizer": null, "bias_constraint": null, "activation": "linear", "depthwise_constraint": null, "data_format": "channels_last", "padding": "same", "strides": [1, 1], "dilation_rate": [1, 1], "bias_initializer": {"class_name": "Zeros", "config": {}}, "depthwise_regularizer": null, "activity_regularizer": null, "kernel_size": [3, 3], "depth_multiplier": 1}, "name": "block_2_depthwise"}, {"class_name": "BatchNormalization", "inbound_nodes": [[["block_2_depthwise", 0, 0, {}]]], "config": {"beta_constraint": null, "beta_regularizer": null, "moving_mean_initializer": {"class_name": "Zeros", "config": {}}, "center": true, "epsilon": 0.001, "trainable": true, "moving_variance_initializer": {"class_name": "Ones", "config": {}}, "beta_initializer": {"class_name": "Zeros", "config": {}}, "gamma_initializer": {"class_name": "Ones", "config": {}}, "scale": true, "axis": -1, "gamma_constraint": null, "gamma_regularizer": null, "momentum": 0.999, "name": "block_2_depthwise_BN"}, "name": "block_2_depthwise_BN"}, {"class_name": "ReLU", "inbound_nodes": [[["block_2_depthwise_BN", 0, 0, {}]]], "config": {"threshold": 0.0, "max_value": 6.0, "trainable": true, "name": "block_2_depthwise_relu", "negative_slope": 0.0}, "name": "block_2_depthwise_relu"}, {"class_name": "Conv2D", "inbound_nodes": [[["block_2_depthwise_relu", 0, 0, {}]]], "config": {"kernel_initializer": {"class_name": "VarianceScaling", "config": {"distribution": "uniform", "scale": 1.0, "seed": null, "mode": "fan_avg"}}, "kernel_constraint": null, "bias_regularizer": null, "bias_constraint": null, "activation": "linear", "trainable": true, "data_format": "channels_last", "padding": "same", "strides": [1, 1], "dilation_rate": [1, 1], "kernel_regularizer": null, "filters": 24, "bias_initializer": {"class_name": "Zeros", "config": {}}, "use_bias": false, "activity_regularizer": null, "kernel_size": [1, 1], "name": "block_2_project"}, "name": "block_2_project"}, {"class_name": "BatchNormalization", "inbound_nodes": [[["block_2_project", 0, 0, {}]]], "config": {"beta_constraint": null, "beta_regularizer": null, "moving_mean_initializer": {"class_name": "Zeros", "config": {}}, "center": true, "epsilon": 0.001, "trainable": true, "moving_variance_initializer": {"class_name": "Ones", "config": {}}, "beta_initializer": {"class_name": "Zeros", "config": {}}, "gamma_initializer": {"class_name": "Ones", "config": {}}, "scale": true, "axis": -1, "gamma_constraint": null, "gamma_regularizer": null, "momentum": 0.999, "name": "block_2_project_BN"}, "name": "block_2_project_BN"}, {"class_name": "Add", "inbound_nodes": [[["block_1_project_BN", 0, 0, {}], ["block_2_project_BN", 0, 0, {}]]], "config": {"trainable": true, "name": "block_2_add"}, "name": "block_2_add"}, {"class_name": "Conv2D", "inbound_nodes": [[["block_2_add", 0, 0, {}]]], "config": {"kernel_initializer": {"class_name": "VarianceScaling", "config": {"distribution": "uniform", "scale": 1.0, "seed": null, "mode": "fan_avg"}}, "kernel_constraint": null, "bias_regularizer": null, "bias_constraint": null, "activation": "linear", "trainable": true, "data_format": "channels_last", "padding": "same", "strides": [1, 1], "dilation_rate": [1, 1], "kernel_regularizer": null, "filters": 144, "bias_initializer": {"class_name": "Zeros", "config": {}}, "use_bias": false, "activity_regularizer": null, "kernel_size": [1, 1], "name": "block_3_expand"}, "name": "block_3_expand"}, {"class_name": "BatchNormalization", "inbound_nodes": [[["block_3_expand", 0, 0, {}]]], "config": {"beta_constraint": null, "beta_regularizer": null, "moving_mean_initializer": {"class_name": "Zeros", "config": {}}, "center": true, "epsilon": 0.001, "trainable": true, "moving_variance_initializer": {"class_name": "Ones", "config": {}}, "beta_initializer": {"class_name": "Zeros", "config": {}}, "gamma_initializer": {"class_name": "Ones", "config": {}}, "scale": true, "axis": -1, "gamma_constraint": null, "gamma_regularizer": null, "momentum": 0.999, "name": "block_3_expand_BN"}, "name": "block_3_expand_BN"}, {"class_name": "ReLU", "inbound_nodes": [[["block_3_expand_BN", 0, 0, {}]]], "config": {"threshold": 0.0, "max_value": 6.0, "trainable": true, "name": "block_3_expand_relu", "negative_slope": 0.0}, "name": "block_3_expand_relu"}, {"class_name": "ZeroPadding2D", "inbound_nodes": [[["block_3_expand_relu", 0, 0, {}]]], "config": {"padding": [[0, 1], [0, 1]], "trainable": true, "data_format": "channels_last", "name": "block_3_pad"}, "name": "block_3_pad"}, {"class_name": "DepthwiseConv2D", "inbound_nodes": [[["block_3_pad", 0, 0, {}]]], "config": {"use_bias": false, "depthwise_initializer": {"class_name": "VarianceScaling", "config": {"distribution": "uniform", "scale": 1.0, "seed": null, "mode": "fan_avg"}}, "trainable": true, "name": "block_3_depthwise", "bias_regularizer": null, "bias_constraint": null, "activation": "linear", "depthwise_constraint": null, "data_format": "channels_last", "padding": "valid", "strides": [2, 2], "dilation_rate": [1, 1], "bias_initializer": {"class_name": "Zeros", "config": {}}, "depthwise_regularizer": null, "activity_regularizer": null, "kernel_size": [3, 3], "depth_multiplier": 1}, "name": "block_3_depthwise"}, {"class_name": "BatchNormalization", "inbound_nodes": [[["block_3_depthwise", 0, 0, {}]]], "config": {"beta_constraint": null, "beta_regularizer": null, "moving_mean_initializer": {"class_name": "Zeros", "config": {}}, "center": true, "epsilon": 0.001, "trainable": true, "moving_variance_initializer": {"class_name": "Ones", "config": {}}, "beta_initializer": {"class_name": "Zeros", "config": {}}, "gamma_initializer": {"class_name": "Ones", "config": {}}, "scale": true, "axis": -1, "gamma_constraint": null, "gamma_regularizer": null, "momentum": 0.999, "name": "block_3_depthwise_BN"}, "name": "block_3_depthwise_BN"}, {"class_name": "ReLU", "inbound_nodes": [[["block_3_depthwise_BN", 0, 0, {}]]], "config": {"threshold": 0.0, "max_value": 6.0, "trainable": true, "name": "block_3_depthwise_relu", "negative_slope": 0.0}, "name": "block_3_depthwise_relu"}, {"class_name": "Conv2D", "inbound_nodes": [[["block_3_depthwise_relu", 0, 0, {}]]], "config": {"kernel_initializer": {"class_name": "VarianceScaling", "config": {"distribution": "uniform", "scale": 1.0, "seed": null, "mode": "fan_avg"}}, "kernel_constraint": null, "bias_regularizer": null, "bias_constraint": null, "activation": "linear", "trainable": true, "data_format": "channels_last", "padding": "same", "strides": [1, 1], "dilation_rate": [1, 1], "kernel_regularizer": null, "filters": 32, "bias_initializer": {"class_name": "Zeros", "config": {}}, "use_bias": false, "activity_regularizer": null, "kernel_size": [1, 1], "name": "block_3_project"}, "name": "block_3_project"}, {"class_name": "BatchNormalization", "inbound_nodes": [[["block_3_project", 0, 0, {}]]], "config": {"beta_constraint": null, "beta_regularizer": null, "moving_mean_initializer": {"class_name": "Zeros", "config": {}}, "center": true, "epsilon": 0.001, "trainable": true, "moving_variance_initializer": {"class_name": "Ones", "config": {}}, "beta_initializer": {"class_name": "Zeros", "config": {}}, "gamma_initializer": {"class_name": "Ones", "config": {}}, "scale": true, "axis": -1, "gamma_constraint": null, "gamma_regularizer": null, "momentum": 0.999, "name": "block_3_project_BN"}, "name": "block_3_project_BN"}, {"class_name": "Conv2D", "inbound_nodes": [[["block_3_project_BN", 0, 0, {}]]], "config": {"kernel_initializer": {"class_name": "VarianceScaling", "config": {"distribution": "uniform", "scale": 1.0, "seed": null, "mode": "fan_avg"}}, "kernel_constraint": null, "bias_regularizer": null, "bias_constraint": null, "activation": "linear", "trainable": true, "data_format": "channels_last", "padding": "same", "strides": [1, 1], "dilation_rate": [1, 1], "kernel_regularizer": null, "filters": 192, "bias_initializer": {"class_name": "Zeros", "config": {}}, "use_bias": false, "activity_regularizer": null, "kernel_size": [1, 1], "name": "block_4_expand"}, "name": "block_4_expand"}, {"class_name": "BatchNormalization", "inbound_nodes": [[["block_4_expand", 0, 0, {}]]], "config": {"beta_constraint": null, "beta_regularizer": null, "moving_mean_initializer": {"class_name": "Zeros", "config": {}}, "center": true, "epsilon": 0.001, "trainable": true, "moving_variance_initializer": {"class_name": "Ones", "config": {}}, "beta_initializer": {"class_name": "Zeros", "config": {}}, "gamma_initializer": {"class_name": "Ones", "config": {}}, "scale": true, "axis": -1, "gamma_constraint": null, "gamma_regularizer": null, "momentum": 0.999, "name": "block_4_expand_BN"}, "name": "block_4_expand_BN"}, {"class_name": "ReLU", "inbound_nodes": [[["block_4_expand_BN", 0, 0, {}]]], "config": {"threshold": 0.0, "max_value": 6.0, "trainable": true, "name": "block_4_expand_relu", "negative_slope": 0.0}, "name": "block_4_expand_relu"}, {"class_name": "DepthwiseConv2D", "inbound_nodes": [[["block_4_expand_relu", 0, 0, {}]]], "config": {"use_bias": false, "depthwise_initializer": {"class_name": "VarianceScaling", "config": {"distribution": "uniform", "scale": 1.0, "seed": null, "mode": "fan_avg"}}, "trainable": true, "name": "block_4_depthwise", "bias_regularizer": null, "bias_constraint": null, "activation": "linear", "depthwise_constraint": null, "data_format": "channels_last", "padding": "same", "strides": [1, 1], "dilation_rate": [1, 1], "bias_initializer": {"class_name": "Zeros", "config": {}}, "depthwise_regularizer": null, "activity_regularizer": null, "kernel_size": [3, 3], "depth_multiplier": 1}, "name": "block_4_depthwise"}, {"class_name": "BatchNormalization", "inbound_nodes": [[["block_4_depthwise", 0, 0, {}]]], "config": {"beta_constraint": null, "beta_regularizer": null, "moving_mean_initializer": {"class_name": "Zeros", "config": {}}, "center": true, "epsilon": 0.001, "trainable": true, "moving_variance_initializer": {"class_name": "Ones", "config": {}}, "beta_initializer": {"class_name": "Zeros", "config": {}}, "gamma_initializer": {"class_name": "Ones", "config": {}}, "scale": true, "axis": -1, "gamma_constraint": null, "gamma_regularizer": null, "momentum": 0.999, "name": "block_4_depthwise_BN"}, "name": "block_4_depthwise_BN"}, {"class_name": "ReLU", "inbound_nodes": [[["block_4_depthwise_BN", 0, 0, {}]]], "config": {"threshold": 0.0, "max_value": 6.0, "trainable": true, "name": "block_4_depthwise_relu", "negative_slope": 0.0}, "name": "block_4_depthwise_relu"}, {"class_name": "Conv2D", "inbound_nodes": [[["block_4_depthwise_relu", 0, 0, {}]]], "config": {"kernel_initializer": {"class_name": "VarianceScaling", "config": {"distribution": "uniform", "scale": 1.0, "seed": null, "mode": "fan_avg"}}, "kernel_constraint": null, "bias_regularizer": null, "bias_constraint": null, "activation": "linear", "trainable": true, "data_format": "channels_last", "padding": "same", "strides": [1, 1], "dilation_rate": [1, 1], "kernel_regularizer": null, "filters": 32, "bias_initializer": {"class_name": "Zeros", "config": {}}, "use_bias": false, "activity_regularizer": null, "kernel_size": [1, 1], "name": "block_4_project"}, "name": "block_4_project"}, {"class_name": "BatchNormalization", "inbound_nodes": [[["block_4_project", 0, 0, {}]]], "config": {"beta_constraint": null, "beta_regularizer": null, "moving_mean_initializer": {"class_name": "Zeros", "config": {}}, "center": true, "epsilon": 0.001, "trainable": true, "moving_variance_initializer": {"class_name": "Ones", "config": {}}, "beta_initializer": {"class_name": "Zeros", "config": {}}, "gamma_initializer": {"class_name": "Ones", "config": {}}, "scale": true, "axis": -1, "gamma_constraint": null, "gamma_regularizer": null, "momentum": 0.999, "name": "block_4_project_BN"}, "name": "block_4_project_BN"}, {"class_name": "Add", "inbound_nodes": [[["block_3_project_BN", 0, 0, {}], ["block_4_project_BN", 0, 0, {}]]], "config": {"trainable": true, "name": "block_4_add"}, "name": "block_4_add"}, {"class_name": "Conv2D", "inbound_nodes": [[["block_4_add", 0, 0, {}]]], "config": {"kernel_initializer": {"class_name": "VarianceScaling", "config": {"distribution": "uniform", "scale": 1.0, "seed": null, "mode": "fan_avg"}}, "kernel_constraint": null, "bias_regularizer": null, "bias_constraint": null, "activation": "linear", "trainable": true, "data_format": "channels_last", "padding": "same", "strides": [1, 1], "dilation_rate": [1, 1], "kernel_regularizer": null, "filters": 192, "bias_initializer": {"class_name": "Zeros", "config": {}}, "use_bias": false, "activity_regularizer": null, "kernel_size": [1, 1], "name": "block_5_expand"}, "name": "block_5_expand"}, {"class_name": "BatchNormalization", "inbound_nodes": [[["block_5_expand", 0, 0, {}]]], "config": {"beta_constraint": null, "beta_regularizer": null, "moving_mean_initializer": {"class_name": "Zeros", "config": {}}, "center": true, "epsilon": 0.001, "trainable": true, "moving_variance_initializer": {"class_name": "Ones", "config": {}}, "beta_initializer": {"class_name": "Zeros", "config": {}}, "gamma_initializer": {"class_name": "Ones", "config": {}}, "scale": true, "axis": -1, "gamma_constraint": null, "gamma_regularizer": null, "momentum": 0.999, "name": "block_5_expand_BN"}, "name": "block_5_expand_BN"}, {"class_name": "ReLU", "inbound_nodes": [[["block_5_expand_BN", 0, 0, {}]]], "config": {"threshold": 0.0, "max_value": 6.0, "trainable": true, "name": "block_5_expand_relu", "negative_slope": 0.0}, "name": "block_5_expand_relu"}, {"class_name": "DepthwiseConv2D", "inbound_nodes": [[["block_5_expand_relu", 0, 0, {}]]], "config": {"use_bias": false, "depthwise_initializer": {"class_name": "VarianceScaling", "config": {"distribution": "uniform", "scale": 1.0, "seed": null, "mode": "fan_avg"}}, "trainable": true, "name": "block_5_depthwise", "bias_regularizer": null, "bias_constraint": null, "activation": "linear", "depthwise_constraint": null, "data_format": "channels_last", "padding": "same", "strides": [1, 1], "dilation_rate": [1, 1], "bias_initializer": {"class_name": "Zeros", "config": {}}, "depthwise_regularizer": null, "activity_regularizer": null, "kernel_size": [3, 3], "depth_multiplier": 1}, "name": "block_5_depthwise"}, {"class_name": "BatchNormalization", "inbound_nodes": [[["block_5_depthwise", 0, 0, {}]]], "config": {"beta_constraint": null, "beta_regularizer": null, "moving_mean_initializer": {"class_name": "Zeros", "config": {}}, "center": true, "epsilon": 0.001, "trainable": true, "moving_variance_initializer": {"class_name": "Ones", "config": {}}, "beta_initializer": {"class_name": "Zeros", "config": {}}, "gamma_initializer": {"class_name": "Ones", "config": {}}, "scale": true, "axis": -1, "gamma_constraint": null, "gamma_regularizer": null, "momentum": 0.999, "name": "block_5_depthwise_BN"}, "name": "block_5_depthwise_BN"}, {"class_name": "ReLU", "inbound_nodes": [[["block_5_depthwise_BN", 0, 0, {}]]], "config": {"threshold": 0.0, "max_value": 6.0, "trainable": true, "name": "block_5_depthwise_relu", "negative_slope": 0.0}, "name": "block_5_depthwise_relu"}, {"class_name": "Conv2D", "inbound_nodes": [[["block_5_depthwise_relu", 0, 0, {}]]], "config": {"kernel_initializer": {"class_name": "VarianceScaling", "config": {"distribution": "uniform", "scale": 1.0, "seed": null, "mode": "fan_avg"}}, "kernel_constraint": null, "bias_regularizer": null, "bias_constraint": null, "activation": "linear", "trainable": true, "data_format": "channels_last", "padding": "same", "strides": [1, 1], "dilation_rate": [1, 1], "kernel_regularizer": null, "filters": 32, "bias_initializer": {"class_name": "Zeros", "config": {}}, "use_bias": false, "activity_regularizer": null, "kernel_size": [1, 1], "name": "block_5_project"}, "name": "block_5_project"}, {"class_name": "BatchNormalization", "inbound_nodes": [[["block_5_project", 0, 0, {}]]], "config": {"beta_constraint": null, "beta_regularizer": null, "moving_mean_initializer": {"class_name": "Zeros", "config": {}}, "center": true, "epsilon": 0.001, "trainable": true, "moving_variance_initializer": {"class_name": "Ones", "config": {}}, "beta_initializer": {"class_name": "Zeros", "config": {}}, "gamma_initializer": {"class_name": "Ones", "config": {}}, "scale": true, "axis": -1, "gamma_constraint": null, "gamma_regularizer": null, "momentum": 0.999, "name": "block_5_project_BN"}, "name": "block_5_project_BN"}, {"class_name": "Add", "inbound_nodes": [[["block_4_add", 0, 0, {}], ["block_5_project_BN", 0, 0, {}]]], "config": {"trainable": true, "name": "block_5_add"}, "name": "block_5_add"}, {"class_name": "Conv2D", "inbound_nodes": [[["block_5_add", 0, 0, {}]]], "config": {"kernel_initializer": {"class_name": "VarianceScaling", "config": {"distribution": "uniform", "scale": 1.0, "seed": null, "mode": "fan_avg"}}, "kernel_constraint": null, "bias_regularizer": null, "bias_constraint": null, "activation": "linear", "trainable": true, "data_format": "channels_last", "padding": "same", "strides": [1, 1], "dilation_rate": [1, 1], "kernel_regularizer": null, "filters": 192, "bias_initializer": {"class_name": "Zeros", "config": {}}, "use_bias": false, "activity_regularizer": null, "kernel_size": [1, 1], "name": "block_6_expand"}, "name": "block_6_expand"}, {"class_name": "BatchNormalization", "inbound_nodes": [[["block_6_expand", 0, 0, {}]]], "config": {"beta_constraint": null, "beta_regularizer": null, "moving_mean_initializer": {"class_name": "Zeros", "config": {}}, "center": true, "epsilon": 0.001, "trainable": true, "moving_variance_initializer": {"class_name": "Ones", "config": {}}, "beta_initializer": {"class_name": "Zeros", "config": {}}, "gamma_initializer": {"class_name": "Ones", "config": {}}, "scale": true, "axis": -1, "gamma_constraint": null, "gamma_regularizer": null, "momentum": 0.999, "name": "block_6_expand_BN"}, "name": "block_6_expand_BN"}, {"class_name": "ReLU", "inbound_nodes": [[["block_6_expand_BN", 0, 0, {}]]], "config": {"threshold": 0.0, "max_value": 6.0, "trainable": true, "name": "block_6_expand_relu", "negative_slope": 0.0}, "name": "block_6_expand_relu"}, {"class_name": "ZeroPadding2D", "inbound_nodes": [[["block_6_expand_relu", 0, 0, {}]]], "config": {"padding": [[0, 1], [0, 1]], "trainable": true, "data_format": "channels_last", "name": "block_6_pad"}, "name": "block_6_pad"}, {"class_name": "DepthwiseConv2D", "inbound_nodes": [[["block_6_pad", 0, 0, {}]]], "config": {"use_bias": false, "depthwise_initializer": {"class_name": "VarianceScaling", "config": {"distribution": "uniform", "scale": 1.0, "seed": null, "mode": "fan_avg"}}, "trainable": true, "name": "block_6_depthwise", "bias_regularizer": null, "bias_constraint": null, "activation": "linear", "depthwise_constraint": null, "data_format": "channels_last", "padding": "valid", "strides": [2, 2], "dilation_rate": [1, 1], "bias_initializer": {"class_name": "Zeros", "config": {}}, "depthwise_regularizer": null, "activity_regularizer": null, "kernel_size": [3, 3], "depth_multiplier": 1}, "name": "block_6_depthwise"}, {"class_name": "BatchNormalization", "inbound_nodes": [[["block_6_depthwise", 0, 0, {}]]], "config": {"beta_constraint": null, "beta_regularizer": null, "moving_mean_initializer": {"class_name": "Zeros", "config": {}}, "center": true, "epsilon": 0.001, "trainable": true, "moving_variance_initializer": {"class_name": "Ones", "config": {}}, "beta_initializer": {"class_name": "Zeros", "config": {}}, "gamma_initializer": {"class_name": "Ones", "config": {}}, "scale": true, "axis": -1, "gamma_constraint": null, "gamma_regularizer": null, "momentum": 0.999, "name": "block_6_depthwise_BN"}, "name": "block_6_depthwise_BN"}, {"class_name": "ReLU", "inbound_nodes": [[["block_6_depthwise_BN", 0, 0, {}]]], "config": {"threshold": 0.0, "max_value": 6.0, "trainable": true, "name": "block_6_depthwise_relu", "negative_slope": 0.0}, "name": "block_6_depthwise_relu"}, {"class_name": "Conv2D", "inbound_nodes": [[["block_6_depthwise_relu", 0, 0, {}]]], "config": {"kernel_initializer": {"class_name": "VarianceScaling", "config": {"distribution": "uniform", "scale": 1.0, "seed": null, "mode": "fan_avg"}}, "kernel_constraint": null, "bias_regularizer": null, "bias_constraint": null, "activation": "linear", "trainable": true, "data_format": "channels_last", "padding": "same", "strides": [1, 1], "dilation_rate": [1, 1], "kernel_regularizer": null, "filters": 64, "bias_initializer": {"class_name": "Zeros", "config": {}}, "use_bias": false, "activity_regularizer": null, "kernel_size": [1, 1], "name": "block_6_project"}, "name": "block_6_project"}, {"class_name": "BatchNormalization", "inbound_nodes": [[["block_6_project", 0, 0, {}]]], "config": {"beta_constraint": null, "beta_regularizer": null, "moving_mean_initializer": {"class_name": "Zeros", "config": {}}, "center": true, "epsilon": 0.001, "trainable": true, "moving_variance_initializer": {"class_name": "Ones", "config": {}}, "beta_initializer": {"class_name": "Zeros", "config": {}}, "gamma_initializer": {"class_name": "Ones", "config": {}}, "scale": true, "axis": -1, "gamma_constraint": null, "gamma_regularizer": null, "momentum": 0.999, "name": "block_6_project_BN"}, "name": "block_6_project_BN"}, {"class_name": "Conv2D", "inbound_nodes": [[["block_6_project_BN", 0, 0, {}]]], "config": {"kernel_initializer": {"class_name": "VarianceScaling", "config": {"distribution": "uniform", "scale": 1.0, "seed": null, "mode": "fan_avg"}}, "kernel_constraint": null, "bias_regularizer": null, "bias_constraint": null, "activation": "linear", "trainable": true, "data_format": "channels_last", "padding": "same", "strides": [1, 1], "dilation_rate": [1, 1], "kernel_regularizer": null, "filters": 384, "bias_initializer": {"class_name": "Zeros", "config": {}}, "use_bias": false, "activity_regularizer": null, "kernel_size": [1, 1], "name": "block_7_expand"}, "name": "block_7_expand"}, {"class_name": "BatchNormalization", "inbound_nodes": [[["block_7_expand", 0, 0, {}]]], "config": {"beta_constraint": null, "beta_regularizer": null, "moving_mean_initializer": {"class_name": "Zeros", "config": {}}, "center": true, "epsilon": 0.001, "trainable": true, "moving_variance_initializer": {"class_name": "Ones", "config": {}}, "beta_initializer": {"class_name": "Zeros", "config": {}}, "gamma_initializer": {"class_name": "Ones", "config": {}}, "scale": true, "axis": -1, "gamma_constraint": null, "gamma_regularizer": null, "momentum": 0.999, "name": "block_7_expand_BN"}, "name": "block_7_expand_BN"}, {"class_name": "ReLU", "inbound_nodes": [[["block_7_expand_BN", 0, 0, {}]]], "config": {"threshold": 0.0, "max_value": 6.0, "trainable": true, "name": "block_7_expand_relu", "negative_slope": 0.0}, "name": "block_7_expand_relu"}, {"class_name": "DepthwiseConv2D", "inbound_nodes": [[["block_7_expand_relu", 0, 0, {}]]], "config": {"use_bias": false, "depthwise_initializer": {"class_name": "VarianceScaling", "config": {"distribution": "uniform", "scale": 1.0, "seed": null, "mode": "fan_avg"}}, "trainable": true, "name": "block_7_depthwise", "bias_regularizer": null, "bias_constraint": null, "activation": "linear", "depthwise_constraint": null, "data_format": "channels_last", "padding": "same", "strides": [1, 1], "dilation_rate": [1, 1], "bias_initializer": {"class_name": "Zeros", "config": {}}, "depthwise_regularizer": null, "activity_regularizer": null, "kernel_size": [3, 3], "depth_multiplier": 1}, "name": "block_7_depthwise"}, {"class_name": "BatchNormalization", "inbound_nodes": [[["block_7_depthwise", 0, 0, {}]]], "config": {"beta_constraint": null, "beta_regularizer": null, "moving_mean_initializer": {"class_name": "Zeros", "config": {}}, "center": true, "epsilon": 0.001, "trainable": true, "moving_variance_initializer": {"class_name": "Ones", "config": {}}, "beta_initializer": {"class_name": "Zeros", "config": {}}, "gamma_initializer": {"class_name": "Ones", "config": {}}, "scale": true, "axis": -1, "gamma_constraint": null, "gamma_regularizer": null, "momentum": 0.999, "name": "block_7_depthwise_BN"}, "name": "block_7_depthwise_BN"}, {"class_name": "ReLU", "inbound_nodes": [[["block_7_depthwise_BN", 0, 0, {}]]], "config": {"threshold": 0.0, "max_value": 6.0, "trainable": true, "name": "block_7_depthwise_relu", "negative_slope": 0.0}, "name": "block_7_depthwise_relu"}, {"class_name": "Conv2D", "inbound_nodes": [[["block_7_depthwise_relu", 0, 0, {}]]], "config": {"kernel_initializer": {"class_name": "VarianceScaling", "config": {"distribution": "uniform", "scale": 1.0, "seed": null, "mode": "fan_avg"}}, "kernel_constraint": null, "bias_regularizer": null, "bias_constraint": null, "activation": "linear", "trainable": true, "data_format": "channels_last", "padding": "same", "strides": [1, 1], "dilation_rate": [1, 1], "kernel_regularizer": null, "filters": 64, "bias_initializer": {"class_name": "Zeros", "config": {}}, "use_bias": false, "activity_regularizer": null, "kernel_size": [1, 1], "name": "block_7_project"}, "name": "block_7_project"}, {"class_name": "BatchNormalization", "inbound_nodes": [[["block_7_project", 0, 0, {}]]], "config": {"beta_constraint": null, "beta_regularizer": null, "moving_mean_initializer": {"class_name": "Zeros", "config": {}}, "center": true, "epsilon": 0.001, "trainable": true, "moving_variance_initializer": {"class_name": "Ones", "config": {}}, "beta_initializer": {"class_name": "Zeros", "config": {}}, "gamma_initializer": {"class_name": "Ones", "config": {}}, "scale": true, "axis": -1, "gamma_constraint": null, "gamma_regularizer": null, "momentum": 0.999, "name": "block_7_project_BN"}, "name": "block_7_project_BN"}, {"class_name": "Add", "inbound_nodes": [[["block_6_project_BN", 0, 0, {}], ["block_7_project_BN", 0, 0, {}]]], "config": {"trainable": true, "name": "block_7_add"}, "name": "block_7_add"}, {"class_name": "Conv2D", "inbound_nodes": [[["block_7_add", 0, 0, {}]]], "config": {"kernel_initializer": {"class_name": "VarianceScaling", "config": {"distribution": "uniform", "scale": 1.0, "seed": null, "mode": "fan_avg"}}, "kernel_constraint": null, "bias_regularizer": null, "bias_constraint": null, "activation": "linear", "trainable": true, "data_format": "channels_last", "padding": "same", "strides": [1, 1], "dilation_rate": [1, 1], "kernel_regularizer": null, "filters": 384, "bias_initializer": {"class_name": "Zeros", "config": {}}, "use_bias": false, "activity_regularizer": null, "kernel_size": [1, 1], "name": "block_8_expand"}, "name": "block_8_expand"}, {"class_name": "BatchNormalization", "inbound_nodes": [[["block_8_expand", 0, 0, {}]]], "config": {"beta_constraint": null, "beta_regularizer": null, "moving_mean_initializer": {"class_name": "Zeros", "config": {}}, "center": true, "epsilon": 0.001, "trainable": true, "moving_variance_initializer": {"class_name": "Ones", "config": {}}, "beta_initializer": {"class_name": "Zeros", "config": {}}, "gamma_initializer": {"class_name": "Ones", "config": {}}, "scale": true, "axis": -1, "gamma_constraint": null, "gamma_regularizer": null, "momentum": 0.999, "name": "block_8_expand_BN"}, "name": "block_8_expand_BN"}, {"class_name": "ReLU", "inbound_nodes": [[["block_8_expand_BN", 0, 0, {}]]], "config": {"threshold": 0.0, "max_value": 6.0, "trainable": true, "name": "block_8_expand_relu", "negative_slope": 0.0}, "name": "block_8_expand_relu"}, {"class_name": "DepthwiseConv2D", "inbound_nodes": [[["block_8_expand_relu", 0, 0, {}]]], "config": {"use_bias": false, "depthwise_initializer": {"class_name": "VarianceScaling", "config": {"distribution": "uniform", "scale": 1.0, "seed": null, "mode": "fan_avg"}}, "trainable": true, "name": "block_8_depthwise", "bias_regularizer": null, "bias_constraint": null, "activation": "linear", "depthwise_constraint": null, "data_format": "channels_last", "padding": "same", "strides": [1, 1], "dilation_rate": [1, 1], "bias_initializer": {"class_name": "Zeros", "config": {}}, "depthwise_regularizer": null, "activity_regularizer": null, "kernel_size": [3, 3], "depth_multiplier": 1}, "name": "block_8_depthwise"}, {"class_name": "BatchNormalization", "inbound_nodes": [[["block_8_depthwise", 0, 0, {}]]], "config": {"beta_constraint": null, "beta_regularizer": null, "moving_mean_initializer": {"class_name": "Zeros", "config": {}}, "center": true, "epsilon": 0.001, "trainable": true, "moving_variance_initializer": {"class_name": "Ones", "config": {}}, "beta_initializer": {"class_name": "Zeros", "config": {}}, "gamma_initializer": {"class_name": "Ones", "config": {}}, "scale": true, "axis": -1, "gamma_constraint": null, "gamma_regularizer": null, "momentum": 0.999, "name": "block_8_depthwise_BN"}, "name": "block_8_depthwise_BN"}, {"class_name": "ReLU", "inbound_nodes": [[["block_8_depthwise_BN", 0, 0, {}]]], "config": {"threshold": 0.0, "max_value": 6.0, "trainable": true, "name": "block_8_depthwise_relu", "negative_slope": 0.0}, "name": "block_8_depthwise_relu"}, {"class_name": "Conv2D", "inbound_nodes": [[["block_8_depthwise_relu", 0, 0, {}]]], "config": {"kernel_initializer": {"class_name": "VarianceScaling", "config": {"distribution": "uniform", "scale": 1.0, "seed": null, "mode": "fan_avg"}}, "kernel_constraint": null, "bias_regularizer": null, "bias_constraint": null, "activation": "linear", "trainable": true, "data_format": "channels_last", "padding": "same", "strides": [1, 1], "dilation_rate": [1, 1], "kernel_regularizer": null, "filters": 64, "bias_initializer": {"class_name": "Zeros", "config": {}}, "use_bias": false, "activity_regularizer": null, "kernel_size": [1, 1], "name": "block_8_project"}, "name": "block_8_project"}, {"class_name": "BatchNormalization", "inbound_nodes": [[["block_8_project", 0, 0, {}]]], "config": {"beta_constraint": null, "beta_regularizer": null, "moving_mean_initializer": {"class_name": "Zeros", "config": {}}, "center": true, "epsilon": 0.001, "trainable": true, "moving_variance_initializer": {"class_name": "Ones", "config": {}}, "beta_initializer": {"class_name": "Zeros", "config": {}}, "gamma_initializer": {"class_name": "Ones", "config": {}}, "scale": true, "axis": -1, "gamma_constraint": null, "gamma_regularizer": null, "momentum": 0.999, "name": "block_8_project_BN"}, "name": "block_8_project_BN"}, {"class_name": "Add", "inbound_nodes": [[["block_7_add", 0, 0, {}], ["block_8_project_BN", 0, 0, {}]]], "config": {"trainable": true, "name": "block_8_add"}, "name": "block_8_add"}, {"class_name": "Conv2D", "inbound_nodes": [[["block_8_add", 0, 0, {}]]], "config": {"kernel_initializer": {"class_name": "VarianceScaling", "config": {"distribution": "uniform", "scale": 1.0, "seed": null, "mode": "fan_avg"}}, "kernel_constraint": null, "bias_regularizer": null, "bias_constraint": null, "activation": "linear", "trainable": true, "data_format": "channels_last", "padding": "same", "strides": [1, 1], "dilation_rate": [1, 1], "kernel_regularizer": null, "filters": 384, "bias_initializer": {"class_name": "Zeros", "config": {}}, "use_bias": false, "activity_regularizer": null, "kernel_size": [1, 1], "name": "block_9_expand"}, "name": "block_9_expand"}, {"class_name": "BatchNormalization", "inbound_nodes": [[["block_9_expand", 0, 0, {}]]], "config": {"beta_constraint": null, "beta_regularizer": null, "moving_mean_initializer": {"class_name": "Zeros", "config": {}}, "center": true, "epsilon": 0.001, "trainable": true, "moving_variance_initializer": {"class_name": "Ones", "config": {}}, "beta_initializer": {"class_name": "Zeros", "config": {}}, "gamma_initializer": {"class_name": "Ones", "config": {}}, "scale": true, "axis": -1, "gamma_constraint": null, "gamma_regularizer": null, "momentum": 0.999, "name": "block_9_expand_BN"}, "name": "block_9_expand_BN"}, {"class_name": "ReLU", "inbound_nodes": [[["block_9_expand_BN", 0, 0, {}]]], "config": {"threshold": 0.0, "max_value": 6.0, "trainable": true, "name": "block_9_expand_relu", "negative_slope": 0.0}, "name": "block_9_expand_relu"}, {"class_name": "DepthwiseConv2D", "inbound_nodes": [[["block_9_expand_relu", 0, 0, {}]]], "config": {"use_bias": false, "depthwise_initializer": {"class_name": "VarianceScaling", "config": {"distribution": "uniform", "scale": 1.0, "seed": null, "mode": "fan_avg"}}, "trainable": true, "name": "block_9_depthwise", "bias_regularizer": null, "bias_constraint": null, "activation": "linear", "depthwise_constraint": null, "data_format": "channels_last", "padding": "same", "strides": [1, 1], "dilation_rate": [1, 1], "bias_initializer": {"class_name": "Zeros", "config": {}}, "depthwise_regularizer": null, "activity_regularizer": null, "kernel_size": [3, 3], "depth_multiplier": 1}, "name": "block_9_depthwise"}, {"class_name": "BatchNormalization", "inbound_nodes": [[["block_9_depthwise", 0, 0, {}]]], "config": {"beta_constraint": null, "beta_regularizer": null, "moving_mean_initializer": {"class_name": "Zeros", "config": {}}, "center": true, "epsilon": 0.001, "trainable": true, "moving_variance_initializer": {"class_name": "Ones", "config": {}}, "beta_initializer": {"class_name": "Zeros", "config": {}}, "gamma_initializer": {"class_name": "Ones", "config": {}}, "scale": true, "axis": -1, "gamma_constraint": null, "gamma_regularizer": null, "momentum": 0.999, "name": "block_9_depthwise_BN"}, "name": "block_9_depthwise_BN"}, {"class_name": "ReLU", "inbound_nodes": [[["block_9_depthwise_BN", 0, 0, {}]]], "config": {"threshold": 0.0, "max_value": 6.0, "trainable": true, "name": "block_9_depthwise_relu", "negative_slope": 0.0}, "name": "block_9_depthwise_relu"}, {"class_name": "Conv2D", "inbound_nodes": [[["block_9_depthwise_relu", 0, 0, {}]]], "config": {"kernel_initializer": {"class_name": "VarianceScaling", "config": {"distribution": "uniform", "scale": 1.0, "seed": null, "mode": "fan_avg"}}, "kernel_constraint": null, "bias_regularizer": null, "bias_constraint": null, "activation": "linear", "trainable": true, "data_format": "channels_last", "padding": "same", "strides": [1, 1], "dilation_rate": [1, 1], "kernel_regularizer": null, "filters": 64, "bias_initializer": {"class_name": "Zeros", "config": {}}, "use_bias": false, "activity_regularizer": null, "kernel_size": [1, 1], "name": "block_9_project"}, "name": "block_9_project"}, {"class_name": "BatchNormalization", "inbound_nodes": [[["block_9_project", 0, 0, {}]]], "config": {"beta_constraint": null, "beta_regularizer": null, "moving_mean_initializer": {"class_name": "Zeros", "config": {}}, "center": true, "epsilon": 0.001, "trainable": true, "moving_variance_initializer": {"class_name": "Ones", "config": {}}, "beta_initializer": {"class_name": "Zeros", "config": {}}, "gamma_initializer": {"class_name": "Ones", "config": {}}, "scale": true, "axis": -1, "gamma_constraint": null, "gamma_regularizer": null, "momentum": 0.999, "name": "block_9_project_BN"}, "name": "block_9_project_BN"}, {"class_name": "Add", "inbound_nodes": [[["block_8_add", 0, 0, {}], ["block_9_project_BN", 0, 0, {}]]], "config": {"trainable": true, "name": "block_9_add"}, "name": "block_9_add"}, {"class_name": "Conv2D", "inbound_nodes": [[["block_9_add", 0, 0, {}]]], "config": {"kernel_initializer": {"class_name": "VarianceScaling", "config": {"distribution": "uniform", "scale": 1.0, "seed": null, "mode": "fan_avg"}}, "kernel_constraint": null, "bias_regularizer": null, "bias_constraint": null, "activation": "linear", "trainable": true, "data_format": "channels_last", "padding": "same", "strides": [1, 1], "dilation_rate": [1, 1], "kernel_regularizer": null, "filters": 384, "bias_initializer": {"class_name": "Zeros", "config": {}}, "use_bias": false, "activity_regularizer": null, "kernel_size": [1, 1], "name": "block_10_expand"}, "name": "block_10_expand"}, {"class_name": "BatchNormalization", "inbound_nodes": [[["block_10_expand", 0, 0, {}]]], "config": {"beta_constraint": null, "beta_regularizer": null, "moving_mean_initializer": {"class_name": "Zeros", "config": {}}, "center": true, "epsilon": 0.001, "trainable": true, "moving_variance_initializer": {"class_name": "Ones", "config": {}}, "beta_initializer": {"class_name": "Zeros", "config": {}}, "gamma_initializer": {"class_name": "Ones", "config": {}}, "scale": true, "axis": -1, "gamma_constraint": null, "gamma_regularizer": null, "momentum": 0.999, "name": "block_10_expand_BN"}, "name": "block_10_expand_BN"}, {"class_name": "ReLU", "inbound_nodes": [[["block_10_expand_BN", 0, 0, {}]]], "config": {"threshold": 0.0, "max_value": 6.0, "trainable": true, "name": "block_10_expand_relu", "negative_slope": 0.0}, "name": "block_10_expand_relu"}, {"class_name": "DepthwiseConv2D", "inbound_nodes": [[["block_10_expand_relu", 0, 0, {}]]], "config": {"use_bias": false, "depthwise_initializer": {"class_name": "VarianceScaling", "config": {"distribution": "uniform", "scale": 1.0, "seed": null, "mode": "fan_avg"}}, "trainable": true, "name": "block_10_depthwise", "bias_regularizer": null, "bias_constraint": null, "activation": "linear", "depthwise_constraint": null, "data_format": "channels_last", "padding": "same", "strides": [1, 1], "dilation_rate": [1, 1], "bias_initializer": {"class_name": "Zeros", "config": {}}, "depthwise_regularizer": null, "activity_regularizer": null, "kernel_size": [3, 3], "depth_multiplier": 1}, "name": "block_10_depthwise"}, {"class_name": "BatchNormalization", "inbound_nodes": [[["block_10_depthwise", 0, 0, {}]]], "config": {"beta_constraint": null, "beta_regularizer": null, "moving_mean_initializer": {"class_name": "Zeros", "config": {}}, "center": true, "epsilon": 0.001, "trainable": true, "moving_variance_initializer": {"class_name": "Ones", "config": {}}, "beta_initializer": {"class_name": "Zeros", "config": {}}, "gamma_initializer": {"class_name": "Ones", "config": {}}, "scale": true, "axis": -1, "gamma_constraint": null, "gamma_regularizer": null, "momentum": 0.999, "name": "block_10_depthwise_BN"}, "name": "block_10_depthwise_BN"}, {"class_name": "ReLU", "inbound_nodes": [[["block_10_depthwise_BN", 0, 0, {}]]], "config": {"threshold": 0.0, "max_value": 6.0, "trainable": true, "name": "block_10_depthwise_relu", "negative_slope": 0.0}, "name": "block_10_depthwise_relu"}, {"class_name": "Conv2D", "inbound_nodes": [[["block_10_depthwise_relu", 0, 0, {}]]], "config": {"kernel_initializer": {"class_name": "VarianceScaling", "config": {"distribution": "uniform", "scale": 1.0, "seed": null, "mode": "fan_avg"}}, "kernel_constraint": null, "bias_regularizer": null, "bias_constraint": null, "activation": "linear", "trainable": true, "data_format": "channels_last", "padding": "same", "strides": [1, 1], "dilation_rate": [1, 1], "kernel_regularizer": null, "filters": 96, "bias_initializer": {"class_name": "Zeros", "config": {}}, "use_bias": false, "activity_regularizer": null, "kernel_size": [1, 1], "name": "block_10_project"}, "name": "block_10_project"}, {"class_name": "BatchNormalization", "inbound_nodes": [[["block_10_project", 0, 0, {}]]], "config": {"beta_constraint": null, "beta_regularizer": null, "moving_mean_initializer": {"class_name": "Zeros", "config": {}}, "center": true, "epsilon": 0.001, "trainable": true, "moving_variance_initializer": {"class_name": "Ones", "config": {}}, "beta_initializer": {"class_name": "Zeros", "config": {}}, "gamma_initializer": {"class_name": "Ones", "config": {}}, "scale": true, "axis": -1, "gamma_constraint": null, "gamma_regularizer": null, "momentum": 0.999, "name": "block_10_project_BN"}, "name": "block_10_project_BN"}, {"class_name": "Conv2D", "inbound_nodes": [[["block_10_project_BN", 0, 0, {}]]], "config": {"kernel_initializer": {"class_name": "VarianceScaling", "config": {"distribution": "uniform", "scale": 1.0, "seed": null, "mode": "fan_avg"}}, "kernel_constraint": null, "bias_regularizer": null, "bias_constraint": null, "activation": "linear", "trainable": true, "data_format": "channels_last", "padding": "same", "strides": [1, 1], "dilation_rate": [1, 1], "kernel_regularizer": null, "filters": 576, "bias_initializer": {"class_name": "Zeros", "config": {}}, "use_bias": false, "activity_regularizer": null, "kernel_size": [1, 1], "name": "block_11_expand"}, "name": "block_11_expand"}, {"class_name": "BatchNormalization", "inbound_nodes": [[["block_11_expand", 0, 0, {}]]], "config": {"beta_constraint": null, "beta_regularizer": null, "moving_mean_initializer": {"class_name": "Zeros", "config": {}}, "center": true, "epsilon": 0.001, "trainable": true, "moving_variance_initializer": {"class_name": "Ones", "config": {}}, "beta_initializer": {"class_name": "Zeros", "config": {}}, "gamma_initializer": {"class_name": "Ones", "config": {}}, "scale": true, "axis": -1, "gamma_constraint": null, "gamma_regularizer": null, "momentum": 0.999, "name": "block_11_expand_BN"}, "name": "block_11_expand_BN"}, {"class_name": "ReLU", "inbound_nodes": [[["block_11_expand_BN", 0, 0, {}]]], "config": {"threshold": 0.0, "max_value": 6.0, "trainable": true, "name": "block_11_expand_relu", "negative_slope": 0.0}, "name": "block_11_expand_relu"}, {"class_name": "DepthwiseConv2D", "inbound_nodes": [[["block_11_expand_relu", 0, 0, {}]]], "config": {"use_bias": false, "depthwise_initializer": {"class_name": "VarianceScaling", "config": {"distribution": "uniform", "scale": 1.0, "seed": null, "mode": "fan_avg"}}, "trainable": true, "name": "block_11_depthwise", "bias_regularizer": null, "bias_constraint": null, "activation": "linear", "depthwise_constraint": null, "data_format": "channels_last", "padding": "same", "strides": [1, 1], "dilation_rate": [1, 1], "bias_initializer": {"class_name": "Zeros", "config": {}}, "depthwise_regularizer": null, "activity_regularizer": null, "kernel_size": [3, 3], "depth_multiplier": 1}, "name": "block_11_depthwise"}, {"class_name": "BatchNormalization", "inbound_nodes": [[["block_11_depthwise", 0, 0, {}]]], "config": {"beta_constraint": null, "beta_regularizer": null, "moving_mean_initializer": {"class_name": "Zeros", "config": {}}, "center": true, "epsilon": 0.001, "trainable": true, "moving_variance_initializer": {"class_name": "Ones", "config": {}}, "beta_initializer": {"class_name": "Zeros", "config": {}}, "gamma_initializer": {"class_name": "Ones", "config": {}}, "scale": true, "axis": -1, "gamma_constraint": null, "gamma_regularizer": null, "momentum": 0.999, "name": "block_11_depthwise_BN"}, "name": "block_11_depthwise_BN"}, {"class_name": "ReLU", "inbound_nodes": [[["block_11_depthwise_BN", 0, 0, {}]]], "config": {"threshold": 0.0, "max_value": 6.0, "trainable": true, "name": "block_11_depthwise_relu", "negative_slope": 0.0}, "name": "block_11_depthwise_relu"}, {"class_name": "Conv2D", "inbound_nodes": [[["block_11_depthwise_relu", 0, 0, {}]]], "config": {"kernel_initializer": {"class_name": "VarianceScaling", "config": {"distribution": "uniform", "scale": 1.0, "seed": null, "mode": "fan_avg"}}, "kernel_constraint": null, "bias_regularizer": null, "bias_constraint": null, "activation": "linear", "trainable": true, "data_format": "channels_last", "padding": "same", "strides": [1, 1], "dilation_rate": [1, 1], "kernel_regularizer": null, "filters": 96, "bias_initializer": {"class_name": "Zeros", "config": {}}, "use_bias": false, "activity_regularizer": null, "kernel_size": [1, 1], "name": "block_11_project"}, "name": "block_11_project"}, {"class_name": "BatchNormalization", "inbound_nodes": [[["block_11_project", 0, 0, {}]]], "config": {"beta_constraint": null, "beta_regularizer": null, "moving_mean_initializer": {"class_name": "Zeros", "config": {}}, "center": true, "epsilon": 0.001, "trainable": true, "moving_variance_initializer": {"class_name": "Ones", "config": {}}, "beta_initializer": {"class_name": "Zeros", "config": {}}, "gamma_initializer": {"class_name": "Ones", "config": {}}, "scale": true, "axis": -1, "gamma_constraint": null, "gamma_regularizer": null, "momentum": 0.999, "name": "block_11_project_BN"}, "name": "block_11_project_BN"}, {"class_name": "Add", "inbound_nodes": [[["block_10_project_BN", 0, 0, {}], ["block_11_project_BN", 0, 0, {}]]], "config": {"trainable": true, "name": "block_11_add"}, "name": "block_11_add"}, {"class_name": "Conv2D", "inbound_nodes": [[["block_11_add", 0, 0, {}]]], "config": {"kernel_initializer": {"class_name": "VarianceScaling", "config": {"distribution": "uniform", "scale": 1.0, "seed": null, "mode": "fan_avg"}}, "kernel_constraint": null, "bias_regularizer": null, "bias_constraint": null, "activation": "linear", "trainable": true, "data_format": "channels_last", "padding": "same", "strides": [1, 1], "dilation_rate": [1, 1], "kernel_regularizer": null, "filters": 576, "bias_initializer": {"class_name": "Zeros", "config": {}}, "use_bias": false, "activity_regularizer": null, "kernel_size": [1, 1], "name": "block_12_expand"}, "name": "block_12_expand"}, {"class_name": "BatchNormalization", "inbound_nodes": [[["block_12_expand", 0, 0, {}]]], "config": {"beta_constraint": null, "beta_regularizer": null, "moving_mean_initializer": {"class_name": "Zeros", "config": {}}, "center": true, "epsilon": 0.001, "trainable": true, "moving_variance_initializer": {"class_name": "Ones", "config": {}}, "beta_initializer": {"class_name": "Zeros", "config": {}}, "gamma_initializer": {"class_name": "Ones", "config": {}}, "scale": true, "axis": -1, "gamma_constraint": null, "gamma_regularizer": null, "momentum": 0.999, "name": "block_12_expand_BN"}, "name": "block_12_expand_BN"}, {"class_name": "ReLU", "inbound_nodes": [[["block_12_expand_BN", 0, 0, {}]]], "config": {"threshold": 0.0, "max_value": 6.0, "trainable": true, "name": "block_12_expand_relu", "negative_slope": 0.0}, "name": "block_12_expand_relu"}, {"class_name": "DepthwiseConv2D", "inbound_nodes": [[["block_12_expand_relu", 0, 0, {}]]], "config": {"use_bias": false, "depthwise_initializer": {"class_name": "VarianceScaling", "config": {"distribution": "uniform", "scale": 1.0, "seed": null, "mode": "fan_avg"}}, "trainable": true, "name": "block_12_depthwise", "bias_regularizer": null, "bias_constraint": null, "activation": "linear", "depthwise_constraint": null, "data_format": "channels_last", "padding": "same", "strides": [1, 1], "dilation_rate": [1, 1], "bias_initializer": {"class_name": "Zeros", "config": {}}, "depthwise_regularizer": null, "activity_regularizer": null, "kernel_size": [3, 3], "depth_multiplier": 1}, "name": "block_12_depthwise"}, {"class_name": "BatchNormalization", "inbound_nodes": [[["block_12_depthwise", 0, 0, {}]]], "config": {"beta_constraint": null, "beta_regularizer": null, "moving_mean_initializer": {"class_name": "Zeros", "config": {}}, "center": true, "epsilon": 0.001, "trainable": true, "moving_variance_initializer": {"class_name": "Ones", "config": {}}, "beta_initializer": {"class_name": "Zeros", "config": {}}, "gamma_initializer": {"class_name": "Ones", "config": {}}, "scale": true, "axis": -1, "gamma_constraint": null, "gamma_regularizer": null, "momentum": 0.999, "name": "block_12_depthwise_BN"}, "name": "block_12_depthwise_BN"}, {"class_name": "ReLU", "inbound_nodes": [[["block_12_depthwise_BN", 0, 0, {}]]], "config": {"threshold": 0.0, "max_value": 6.0, "trainable": true, "name": "block_12_depthwise_relu", "negative_slope": 0.0}, "name": "block_12_depthwise_relu"}, {"class_name": "Conv2D", "inbound_nodes": [[["block_12_depthwise_relu", 0, 0, {}]]], "config": {"kernel_initializer": {"class_name": "VarianceScaling", "config": {"distribution": "uniform", "scale": 1.0, "seed": null, "mode": "fan_avg"}}, "kernel_constraint": null, "bias_regularizer": null, "bias_constraint": null, "activation": "linear", "trainable": true, "data_format": "channels_last", "padding": "same", "strides": [1, 1], "dilation_rate": [1, 1], "kernel_regularizer": null, "filters": 96, "bias_initializer": {"class_name": "Zeros", "config": {}}, "use_bias": false, "activity_regularizer": null, "kernel_size": [1, 1], "name": "block_12_project"}, "name": "block_12_project"}, {"class_name": "BatchNormalization", "inbound_nodes": [[["block_12_project", 0, 0, {}]]], "config": {"beta_constraint": null, "beta_regularizer": null, "moving_mean_initializer": {"class_name": "Zeros", "config": {}}, "center": true, "epsilon": 0.001, "trainable": true, "moving_variance_initializer": {"class_name": "Ones", "config": {}}, "beta_initializer": {"class_name": "Zeros", "config": {}}, "gamma_initializer": {"class_name": "Ones", "config": {}}, "scale": true, "axis": -1, "gamma_constraint": null, "gamma_regularizer": null, "momentum": 0.999, "name": "block_12_project_BN"}, "name": "block_12_project_BN"}, {"class_name": "Add", "inbound_nodes": [[["block_11_add", 0, 0, {}], ["block_12_project_BN", 0, 0, {}]]], "config": {"trainable": true, "name": "block_12_add"}, "name": "block_12_add"}, {"class_name": "Conv2D", "inbound_nodes": [[["block_12_add", 0, 0, {}]]], "config": {"kernel_initializer": {"class_name": "VarianceScaling", "config": {"distribution": "uniform", "scale": 1.0, "seed": null, "mode": "fan_avg"}}, "kernel_constraint": null, "bias_regularizer": null, "bias_constraint": null, "activation": "linear", "trainable": true, "data_format": "channels_last", "padding": "same", "strides": [1, 1], "dilation_rate": [1, 1], "kernel_regularizer": null, "filters": 576, "bias_initializer": {"class_name": "Zeros", "config": {}}, "use_bias": false, "activity_regularizer": null, "kernel_size": [1, 1], "name": "block_13_expand"}, "name": "block_13_expand"}, {"class_name": "BatchNormalization", "inbound_nodes": [[["block_13_expand", 0, 0, {}]]], "config": {"beta_constraint": null, "beta_regularizer": null, "moving_mean_initializer": {"class_name": "Zeros", "config": {}}, "center": true, "epsilon": 0.001, "trainable": true, "moving_variance_initializer": {"class_name": "Ones", "config": {}}, "beta_initializer": {"class_name": "Zeros", "config": {}}, "gamma_initializer": {"class_name": "Ones", "config": {}}, "scale": true, "axis": -1, "gamma_constraint": null, "gamma_regularizer": null, "momentum": 0.999, "name": "block_13_expand_BN"}, "name": "block_13_expand_BN"}, {"class_name": "ReLU", "inbound_nodes": [[["block_13_expand_BN", 0, 0, {}]]], "config": {"threshold": 0.0, "max_value": 6.0, "trainable": true, "name": "block_13_expand_relu", "negative_slope": 0.0}, "name": "block_13_expand_relu"}, {"class_name": "ZeroPadding2D", "inbound_nodes": [[["block_13_expand_relu", 0, 0, {}]]], "config": {"padding": [[0, 1], [0, 1]], "trainable": true, "data_format": "channels_last", "name": "block_13_pad"}, "name": "block_13_pad"}, {"class_name": "DepthwiseConv2D", "inbound_nodes": [[["block_13_pad", 0, 0, {}]]], "config": {"use_bias": false, "depthwise_initializer": {"class_name": "VarianceScaling", "config": {"distribution": "uniform", "scale": 1.0, "seed": null, "mode": "fan_avg"}}, "trainable": true, "name": "block_13_depthwise", "bias_regularizer": null, "bias_constraint": null, "activation": "linear", "depthwise_constraint": null, "data_format": "channels_last", "padding": "valid", "strides": [2, 2], "dilation_rate": [1, 1], "bias_initializer": {"class_name": "Zeros", "config": {}}, "depthwise_regularizer": null, "activity_regularizer": null, "kernel_size": [3, 3], "depth_multiplier": 1}, "name": "block_13_depthwise"}, {"class_name": "BatchNormalization", "inbound_nodes": [[["block_13_depthwise", 0, 0, {}]]], "config": {"beta_constraint": null, "beta_regularizer": null, "moving_mean_initializer": {"class_name": "Zeros", "config": {}}, "center": true, "epsilon": 0.001, "trainable": true, "moving_variance_initializer": {"class_name": "Ones", "config": {}}, "beta_initializer": {"class_name": "Zeros", "config": {}}, "gamma_initializer": {"class_name": "Ones", "config": {}}, "scale": true, "axis": -1, "gamma_constraint": null, "gamma_regularizer": null, "momentum": 0.999, "name": "block_13_depthwise_BN"}, "name": "block_13_depthwise_BN"}, {"class_name": "ReLU", "inbound_nodes": [[["block_13_depthwise_BN", 0, 0, {}]]], "config": {"threshold": 0.0, "max_value": 6.0, "trainable": true, "name": "block_13_depthwise_relu", "negative_slope": 0.0}, "name": "block_13_depthwise_relu"}, {"class_name": "Conv2D", "inbound_nodes": [[["block_13_depthwise_relu", 0, 0, {}]]], "config": {"kernel_initializer": {"class_name": "VarianceScaling", "config": {"distribution": "uniform", "scale": 1.0, "seed": null, "mode": "fan_avg"}}, "kernel_constraint": null, "bias_regularizer": null, "bias_constraint": null, "activation": "linear", "trainable": true, "data_format": "channels_last", "padding": "same", "strides": [1, 1], "dilation_rate": [1, 1], "kernel_regularizer": null, "filters": 160, "bias_initializer": {"class_name": "Zeros", "config": {}}, "use_bias": false, "activity_regularizer": null, "kernel_size": [1, 1], "name": "block_13_project"}, "name": "block_13_project"}, {"class_name": "BatchNormalization", "inbound_nodes": [[["block_13_project", 0, 0, {}]]], "config": {"beta_constraint": null, "beta_regularizer": null, "moving_mean_initializer": {"class_name": "Zeros", "config": {}}, "center": true, "epsilon": 0.001, "trainable": true, "moving_variance_initializer": {"class_name": "Ones", "config": {}}, "beta_initializer": {"class_name": "Zeros", "config": {}}, "gamma_initializer": {"class_name": "Ones", "config": {}}, "scale": true, "axis": -1, "gamma_constraint": null, "gamma_regularizer": null, "momentum": 0.999, "name": "block_13_project_BN"}, "name": "block_13_project_BN"}, {"class_name": "Conv2D", "inbound_nodes": [[["block_13_project_BN", 0, 0, {}]]], "config": {"kernel_initializer": {"class_name": "VarianceScaling", "config": {"distribution": "uniform", "scale": 1.0, "seed": null, "mode": "fan_avg"}}, "kernel_constraint": null, "bias_regularizer": null, "bias_constraint": null, "activation": "linear", "trainable": true, "data_format": "channels_last", "padding": "same", "strides": [1, 1], "dilation_rate": [1, 1], "kernel_regularizer": null, "filters": 960, "bias_initializer": {"class_name": "Zeros", "config": {}}, "use_bias": false, "activity_regularizer": null, "kernel_size": [1, 1], "name": "block_14_expand"}, "name": "block_14_expand"}, {"class_name": "BatchNormalization", "inbound_nodes": [[["block_14_expand", 0, 0, {}]]], "config": {"beta_constraint": null, "beta_regularizer": null, "moving_mean_initializer": {"class_name": "Zeros", "config": {}}, "center": true, "epsilon": 0.001, "trainable": true, "moving_variance_initializer": {"class_name": "Ones", "config": {}}, "beta_initializer": {"class_name": "Zeros", "config": {}}, "gamma_initializer": {"class_name": "Ones", "config": {}}, "scale": true, "axis": -1, "gamma_constraint": null, "gamma_regularizer": null, "momentum": 0.999, "name": "block_14_expand_BN"}, "name": "block_14_expand_BN"}, {"class_name": "ReLU", "inbound_nodes": [[["block_14_expand_BN", 0, 0, {}]]], "config": {"threshold": 0.0, "max_value": 6.0, "trainable": true, "name": "block_14_expand_relu", "negative_slope": 0.0}, "name": "block_14_expand_relu"}, {"class_name": "DepthwiseConv2D", "inbound_nodes": [[["block_14_expand_relu", 0, 0, {}]]], "config": {"use_bias": false, "depthwise_initializer": {"class_name": "VarianceScaling", "config": {"distribution": "uniform", "scale": 1.0, "seed": null, "mode": "fan_avg"}}, "trainable": true, "name": "block_14_depthwise", "bias_regularizer": null, "bias_constraint": null, "activation": "linear", "depthwise_constraint": null, "data_format": "channels_last", "padding": "same", "strides": [1, 1], "dilation_rate": [1, 1], "bias_initializer": {"class_name": "Zeros", "config": {}}, "depthwise_regularizer": null, "activity_regularizer": null, "kernel_size": [3, 3], "depth_multiplier": 1}, "name": "block_14_depthwise"}, {"class_name": "BatchNormalization", "inbound_nodes": [[["block_14_depthwise", 0, 0, {}]]], "config": {"beta_constraint": null, "beta_regularizer": null, "moving_mean_initializer": {"class_name": "Zeros", "config": {}}, "center": true, "epsilon": 0.001, "trainable": true, "moving_variance_initializer": {"class_name": "Ones", "config": {}}, "beta_initializer": {"class_name": "Zeros", "config": {}}, "gamma_initializer": {"class_name": "Ones", "config": {}}, "scale": true, "axis": -1, "gamma_constraint": null, "gamma_regularizer": null, "momentum": 0.999, "name": "block_14_depthwise_BN"}, "name": "block_14_depthwise_BN"}, {"class_name": "ReLU", "inbound_nodes": [[["block_14_depthwise_BN", 0, 0, {}]]], "config": {"threshold": 0.0, "max_value": 6.0, "trainable": true, "name": "block_14_depthwise_relu", "negative_slope": 0.0}, "name": "block_14_depthwise_relu"}, {"class_name": "Conv2D", "inbound_nodes": [[["block_14_depthwise_relu", 0, 0, {}]]], "config": {"kernel_initializer": {"class_name": "VarianceScaling", "config": {"distribution": "uniform", "scale": 1.0, "seed": null, "mode": "fan_avg"}}, "kernel_constraint": null, "bias_regularizer": null, "bias_constraint": null, "activation": "linear", "trainable": true, "data_format": "channels_last", "padding": "same", "strides": [1, 1], "dilation_rate": [1, 1], "kernel_regularizer": null, "filters": 160, "bias_initializer": {"class_name": "Zeros", "config": {}}, "use_bias": false, "activity_regularizer": null, "kernel_size": [1, 1], "name": "block_14_project"}, "name": "block_14_project"}, {"class_name": "BatchNormalization", "inbound_nodes": [[["block_14_project", 0, 0, {}]]], "config": {"beta_constraint": null, "beta_regularizer": null, "moving_mean_initializer": {"class_name": "Zeros", "config": {}}, "center": true, "epsilon": 0.001, "trainable": true, "moving_variance_initializer": {"class_name": "Ones", "config": {}}, "beta_initializer": {"class_name": "Zeros", "config": {}}, "gamma_initializer": {"class_name": "Ones", "config": {}}, "scale": true, "axis": -1, "gamma_constraint": null, "gamma_regularizer": null, "momentum": 0.999, "name": "block_14_project_BN"}, "name": "block_14_project_BN"}, {"class_name": "Add", "inbound_nodes": [[["block_13_project_BN", 0, 0, {}], ["block_14_project_BN", 0, 0, {}]]], "config": {"trainable": true, "name": "block_14_add"}, "name": "block_14_add"}, {"class_name": "Conv2D", "inbound_nodes": [[["block_14_add", 0, 0, {}]]], "config": {"kernel_initializer": {"class_name": "VarianceScaling", "config": {"distribution": "uniform", "scale": 1.0, "seed": null, "mode": "fan_avg"}}, "kernel_constraint": null, "bias_regularizer": null, "bias_constraint": null, "activation": "linear", "trainable": true, "data_format": "channels_last", "padding": "same", "strides": [1, 1], "dilation_rate": [1, 1], "kernel_regularizer": null, "filters": 960, "bias_initializer": {"class_name": "Zeros", "config": {}}, "use_bias": false, "activity_regularizer": null, "kernel_size": [1, 1], "name": "block_15_expand"}, "name": "block_15_expand"}, {"class_name": "BatchNormalization", "inbound_nodes": [[["block_15_expand", 0, 0, {}]]], "config": {"beta_constraint": null, "beta_regularizer": null, "moving_mean_initializer": {"class_name": "Zeros", "config": {}}, "center": true, "epsilon": 0.001, "trainable": true, "moving_variance_initializer": {"class_name": "Ones", "config": {}}, "beta_initializer": {"class_name": "Zeros", "config": {}}, "gamma_initializer": {"class_name": "Ones", "config": {}}, "scale": true, "axis": -1, "gamma_constraint": null, "gamma_regularizer": null, "momentum": 0.999, "name": "block_15_expand_BN"}, "name": "block_15_expand_BN"}, {"class_name": "ReLU", "inbound_nodes": [[["block_15_expand_BN", 0, 0, {}]]], "config": {"threshold": 0.0, "max_value": 6.0, "trainable": true, "name": "block_15_expand_relu", "negative_slope": 0.0}, "name": "block_15_expand_relu"}, {"class_name": "DepthwiseConv2D", "inbound_nodes": [[["block_15_expand_relu", 0, 0, {}]]], "config": {"use_bias": false, "depthwise_initializer": {"class_name": "VarianceScaling", "config": {"distribution": "uniform", "scale": 1.0, "seed": null, "mode": "fan_avg"}}, "trainable": true, "name": "block_15_depthwise", "bias_regularizer": null, "bias_constraint": null, "activation": "linear", "depthwise_constraint": null, "data_format": "channels_last", "padding": "same", "strides": [1, 1], "dilation_rate": [1, 1], "bias_initializer": {"class_name": "Zeros", "config": {}}, "depthwise_regularizer": null, "activity_regularizer": null, "kernel_size": [3, 3], "depth_multiplier": 1}, "name": "block_15_depthwise"}, {"class_name": "BatchNormalization", "inbound_nodes": [[["block_15_depthwise", 0, 0, {}]]], "config": {"beta_constraint": null, "beta_regularizer": null, "moving_mean_initializer": {"class_name": "Zeros", "config": {}}, "center": true, "epsilon": 0.001, "trainable": true, "moving_variance_initializer": {"class_name": "Ones", "config": {}}, "beta_initializer": {"class_name": "Zeros", "config": {}}, "gamma_initializer": {"class_name": "Ones", "config": {}}, "scale": true, "axis": -1, "gamma_constraint": null, "gamma_regularizer": null, "momentum": 0.999, "name": "block_15_depthwise_BN"}, "name": "block_15_depthwise_BN"}, {"class_name": "ReLU", "inbound_nodes": [[["block_15_depthwise_BN", 0, 0, {}]]], "config": {"threshold": 0.0, "max_value": 6.0, "trainable": true, "name": "block_15_depthwise_relu", "negative_slope": 0.0}, "name": "block_15_depthwise_relu"}, {"class_name": "Conv2D", "inbound_nodes": [[["block_15_depthwise_relu", 0, 0, {}]]], "config": {"kernel_initializer": {"class_name": "VarianceScaling", "config": {"distribution": "uniform", "scale": 1.0, "seed": null, "mode": "fan_avg"}}, "kernel_constraint": null, "bias_regularizer": null, "bias_constraint": null, "activation": "linear", "trainable": true, "data_format": "channels_last", "padding": "same", "strides": [1, 1], "dilation_rate": [1, 1], "kernel_regularizer": null, "filters": 160, "bias_initializer": {"class_name": "Zeros", "config": {}}, "use_bias": false, "activity_regularizer": null, "kernel_size": [1, 1], "name": "block_15_project"}, "name": "block_15_project"}, {"class_name": "BatchNormalization", "inbound_nodes": [[["block_15_project", 0, 0, {}]]], "config": {"beta_constraint": null, "beta_regularizer": null, "moving_mean_initializer": {"class_name": "Zeros", "config": {}}, "center": true, "epsilon": 0.001, "trainable": true, "moving_variance_initializer": {"class_name": "Ones", "config": {}}, "beta_initializer": {"class_name": "Zeros", "config": {}}, "gamma_initializer": {"class_name": "Ones", "config": {}}, "scale": true, "axis": -1, "gamma_constraint": null, "gamma_regularizer": null, "momentum": 0.999, "name": "block_15_project_BN"}, "name": "block_15_project_BN"}, {"class_name": "Add", "inbound_nodes": [[["block_14_add", 0, 0, {}], ["block_15_project_BN", 0, 0, {}]]], "config": {"trainable": true, "name": "block_15_add"}, "name": "block_15_add"}, {"class_name": "Conv2D", "inbound_nodes": [[["block_15_add", 0, 0, {}]]], "config": {"kernel_initializer": {"class_name": "VarianceScaling", "config": {"distribution": "uniform", "scale": 1.0, "seed": null, "mode": "fan_avg"}}, "kernel_constraint": null, "bias_regularizer": null, "bias_constraint": null, "activation": "linear", "trainable": true, "data_format": "channels_last", "padding": "same", "strides": [1, 1], "dilation_rate": [1, 1], "kernel_regularizer": null, "filters": 960, "bias_initializer": {"class_name": "Zeros", "config": {}}, "use_bias": false, "activity_regularizer": null, "kernel_size": [1, 1], "name": "block_16_expand"}, "name": "block_16_expand"}, {"class_name": "BatchNormalization", "inbound_nodes": [[["block_16_expand", 0, 0, {}]]], "config": {"beta_constraint": null, "beta_regularizer": null, "moving_mean_initializer": {"class_name": "Zeros", "config": {}}, "center": true, "epsilon": 0.001, "trainable": true, "moving_variance_initializer": {"class_name": "Ones", "config": {}}, "beta_initializer": {"class_name": "Zeros", "config": {}}, "gamma_initializer": {"class_name": "Ones", "config": {}}, "scale": true, "axis": -1, "gamma_constraint": null, "gamma_regularizer": null, "momentum": 0.999, "name": "block_16_expand_BN"}, "name": "block_16_expand_BN"}, {"class_name": "ReLU", "inbound_nodes": [[["block_16_expand_BN", 0, 0, {}]]], "config": {"threshold": 0.0, "max_value": 6.0, "trainable": true, "name": "block_16_expand_relu", "negative_slope": 0.0}, "name": "block_16_expand_relu"}, {"class_name": "DepthwiseConv2D", "inbound_nodes": [[["block_16_expand_relu", 0, 0, {}]]], "config": {"use_bias": false, "depthwise_initializer": {"class_name": "VarianceScaling", "config": {"distribution": "uniform", "scale": 1.0, "seed": null, "mode": "fan_avg"}}, "trainable": true, "name": "block_16_depthwise", "bias_regularizer": null, "bias_constraint": null, "activation": "linear", "depthwise_constraint": null, "data_format": "channels_last", "padding": "same", "strides": [1, 1], "dilation_rate": [1, 1], "bias_initializer": {"class_name": "Zeros", "config": {}}, "depthwise_regularizer": null, "activity_regularizer": null, "kernel_size": [3, 3], "depth_multiplier": 1}, "name": "block_16_depthwise"}, {"class_name": "BatchNormalization", "inbound_nodes": [[["block_16_depthwise", 0, 0, {}]]], "config": {"beta_constraint": null, "beta_regularizer": null, "moving_mean_initializer": {"class_name": "Zeros", "config": {}}, "center": true, "epsilon": 0.001, "trainable": true, "moving_variance_initializer": {"class_name": "Ones", "config": {}}, "beta_initializer": {"class_name": "Zeros", "config": {}}, "gamma_initializer": {"class_name": "Ones", "config": {}}, "scale": true, "axis": -1, "gamma_constraint": null, "gamma_regularizer": null, "momentum": 0.999, "name": "block_16_depthwise_BN"}, "name": "block_16_depthwise_BN"}, {"class_name": "ReLU", "inbound_nodes": [[["block_16_depthwise_BN", 0, 0, {}]]], "config": {"threshold": 0.0, "max_value": 6.0, "trainable": true, "name": "block_16_depthwise_relu", "negative_slope": 0.0}, "name": "block_16_depthwise_relu"}, {"class_name": "Conv2D", "inbound_nodes": [[["block_16_depthwise_relu", 0, 0, {}]]], "config": {"kernel_initializer": {"class_name": "VarianceScaling", "config": {"distribution": "uniform", "scale": 1.0, "seed": null, "mode": "fan_avg"}}, "kernel_constraint": null, "bias_regularizer": null, "bias_constraint": null, "activation": "linear", "trainable": true, "data_format": "channels_last", "padding": "same", "strides": [1, 1], "dilation_rate": [1, 1], "kernel_regularizer": null, "filters": 320, "bias_initializer": {"class_name": "Zeros", "config": {}}, "use_bias": false, "activity_regularizer": null, "kernel_size": [1, 1], "name": "block_16_project"}, "name": "block_16_project"}, {"class_name": "BatchNormalization", "inbound_nodes": [[["block_16_project", 0, 0, {}]]], "config": {"beta_constraint": null, "beta_regularizer": null, "moving_mean_initializer": {"class_name": "Zeros", "config": {}}, "center": true, "epsilon": 0.001, "trainable": true, "moving_variance_initializer": {"class_name": "Ones", "config": {}}, "beta_initializer": {"class_name": "Zeros", "config": {}}, "gamma_initializer": {"class_name": "Ones", "config": {}}, "scale": true, "axis": -1, "gamma_constraint": null, "gamma_regularizer": null, "momentum": 0.999, "name": "block_16_project_BN"}, "name": "block_16_project_BN"}, {"class_name": "Conv2D", "inbound_nodes": [[["block_16_project_BN", 0, 0, {}]]], "config": {"kernel_initializer": {"class_name": "VarianceScaling", "config": {"distribution": "uniform", "scale": 1.0, "seed": null, "mode": "fan_avg"}}, "kernel_constraint": null, "bias_regularizer": null, "bias_constraint": null, "activation": "linear", "trainable": true, "data_format": "channels_last", "padding": "valid", "strides": [1, 1], "dilation_rate": [1, 1], "kernel_regularizer": null, "filters": 1280, "bias_initializer": {"class_name": "Zeros", "config": {}}, "use_bias": false, "activity_regularizer": null, "kernel_size": [1, 1], "name": "Conv_1"}, "name": "Conv_1"}, {"class_name": "BatchNormalization", "inbound_nodes": [[["Conv_1", 0, 0, {}]]], "config": {"beta_constraint": null, "beta_regularizer": null, "moving_mean_initializer": {"class_name": "Zeros", "config": {}}, "center": true, "epsilon": 0.001, "trainable": true, "moving_variance_initializer": {"class_name": "Ones", "config": {}}, "beta_initializer": {"class_name": "Zeros", "config": {}}, "gamma_initializer": {"class_name": "Ones", "config": {}}, "scale": true, "axis": -1, "gamma_constraint": null, "gamma_regularizer": null, "momentum": 0.999, "name": "Conv_1_bn"}, "name": "Conv_1_bn"}, {"class_name": "ReLU", "inbound_nodes": [[["Conv_1_bn", 0, 0, {}]]], "config": {"threshold": 0.0, "max_value": 6.0, "trainable": true, "name": "out_relu", "negative_slope": 0.0}, "name": "out_relu"}], "output_layers": [["out_relu", 0, 0]], "input_layers": [["input_1", 0, 0]], "name": "mobilenetv2_1.00_224"}}, {"class_name": "Flatten", "config": {"dtype": "float32", "batch_input_shape": [null, 7, 7, 1280], "trainable": true, "data_format": "channels_last", "name": "flatten_1"}}, {"class_name": "Dense", "config": {"kernel_initializer": {"class_name": "VarianceScaling", "config": {"distribution": "uniform", "scale": 1.0, "seed": null, "mode": "fan_avg"}}, "name": "dense_1", "kernel_constraint": null, "bias_regularizer": null, "bias_constraint": null, "activation": "linear", "trainable": true, "kernel_regularizer": null, "bias_initializer": {"class_name": "Zeros", "config": {}}, "units": 64, "use_bias": true, "activity_regularizer": null}}, {"class_name": "Activation", "config": {"activation": "relu", "trainable": true, "name": "activation_1"}}, {"class_name": "Dropout", "config": {"seed": null, "rate": 0.5, "noise_shape": null, "trainable": true, "name": "dropout_1"}}, {"class_name": "Dense", "config": {"kernel_initializer": {"class_name": "VarianceScaling", "config": {"distribution": "uniform", "scale": 1.0, "seed": null, "mode": "fan_avg"}}, "name": "dense_2", "kernel_constraint": null, "bias_regularizer": null, "bias_constraint": null, "activation": "linear", "trainable": true, "kernel_regularizer": null, "bias_initializer": {"class_name": "Zeros", "config": {}}, "units": 64, "use_bias": true, "activity_regularizer": null}}, {"class_name": "Activation", "config": {"activation": "relu", "trainable": true, "name": "activation_2"}}, {"class_name": "Dense", "config": {"kernel_initializer": {"class_name": "VarianceScaling", "config": {"distribution": "uniform", "scale": 1.0, "seed": null, "mode": "fan_avg"}}, "name": "dense_3", "kernel_constraint": null, "bias_regularizer": null, "bias_constraint": null, "activation": "sigmoid", "trainable": true, "kernel_regularizer": null, "bias_initializer": {"class_name": "Zeros", "config": {}}, "units": 1, "use_bias": true, "activity_regularizer": null}}], "name": "sequential_1"}}, "backend": "tensorflow"}, "weightsManifest": [{"paths": ["group1-shard1of6", "group1-shard2of6", "group1-shard3of6", "group1-shard4of6", "group1-shard5of6", "group1-shard6of6"], "weights": [{"dtype": "float32", "shape": [62720, 64], "name": "dense_1/kernel"}, {"dtype": "float32", "shape": [64], "name": "dense_1/bias"}, {"dtype": "float32", "shape": [64, 64], "name": "dense_2/kernel"}, {"dtype": "float32", "shape": [64], "name": "dense_2/bias"}, {"dtype": "float32", "shape": [64, 1], "name": "dense_3/kernel"}, {"dtype": "float32", "shape": [1], "name": "dense_3/bias"}, {"dtype": "float32", "shape": [3, 3, 3, 32], "name": "Conv1/kernel"}, {"dtype": "float32", "shape": [32], "name": "bn_Conv1/gamma"}, {"dtype": "float32", "shape": [32], "name": "bn_Conv1/beta"}, {"dtype": "float32", "shape": [3, 3, 32, 1], "name": "expanded_conv_depthwise/depthwise_kernel"}, {"dtype": "float32", "shape": [32], "name": "expanded_conv_depthwise_BN/gamma"}, {"dtype": "float32", "shape": [32], "name": "expanded_conv_depthwise_BN/beta"}, {"dtype": "float32", "shape": [1, 1, 32, 16], "name": "expanded_conv_project/kernel"}, {"dtype": "float32", "shape": [16], "name": "expanded_conv_project_BN/gamma"}, {"dtype": "float32", "shape": [16], "name": "expanded_conv_project_BN/beta"}, {"dtype": "float32", "shape": [1, 1, 16, 96], "name": "block_1_expand/kernel"}, {"dtype": "float32", "shape": [96], "name": "block_1_expand_BN/gamma"}, {"dtype": "float32", "shape": [96], "name": "block_1_expand_BN/beta"}, {"dtype": "float32", "shape": [3, 3, 96, 1], "name": "block_1_depthwise/depthwise_kernel"}, {"dtype": "float32", "shape": [96], "name": "block_1_depthwise_BN/gamma"}, {"dtype": "float32", "shape": [96], "name": "block_1_depthwise_BN/beta"}, {"dtype": "float32", "shape": [1, 1, 96, 24], "name": "block_1_project/kernel"}, {"dtype": "float32", "shape": [24], "name": "block_1_project_BN/gamma"}, {"dtype": "float32", "shape": [24], "name": "block_1_project_BN/beta"}, {"dtype": "float32", "shape": [1, 1, 24, 144], "name": "block_2_expand/kernel"}, {"dtype": "float32", "shape": [144], "name": "block_2_expand_BN/gamma"}, {"dtype": "float32", "shape": [144], "name": "block_2_expand_BN/beta"}, {"dtype": "float32", "shape": [3, 3, 144, 1], "name": "block_2_depthwise/depthwise_kernel"}, {"dtype": "float32", "shape": [144], "name": "block_2_depthwise_BN/gamma"}, {"dtype": "float32", "shape": [144], "name": "block_2_depthwise_BN/beta"}, {"dtype": "float32", "shape": [1, 1, 144, 24], "name": "block_2_project/kernel"}, {"dtype": "float32", "shape": [24], "name": "block_2_project_BN/gamma"}, {"dtype": "float32", "shape": [24], "name": "block_2_project_BN/beta"}, {"dtype": "float32", "shape": [1, 1, 24, 144], "name": "block_3_expand/kernel"}, {"dtype": "float32", "shape": [144], "name": "block_3_expand_BN/gamma"}, {"dtype": "float32", "shape": [144], "name": "block_3_expand_BN/beta"}, {"dtype": "float32", "shape": [3, 3, 144, 1], "name": "block_3_depthwise/depthwise_kernel"}, {"dtype": "float32", "shape": [144], "name": "block_3_depthwise_BN/gamma"}, {"dtype": "float32", "shape": [144], "name": "block_3_depthwise_BN/beta"}, {"dtype": "float32", "shape": [1, 1, 144, 32], "name": "block_3_project/kernel"}, {"dtype": "float32", "shape": [32], "name": "block_3_project_BN/gamma"}, {"dtype": "float32", "shape": [32], "name": "block_3_project_BN/beta"}, {"dtype": "float32", "shape": [1, 1, 32, 192], "name": "block_4_expand/kernel"}, {"dtype": "float32", "shape": [192], "name": "block_4_expand_BN/gamma"}, {"dtype": "float32", "shape": [192], "name": "block_4_expand_BN/beta"}, {"dtype": "float32", "shape": [3, 3, 192, 1], "name": "block_4_depthwise/depthwise_kernel"}, {"dtype": "float32", "shape": [192], "name": "block_4_depthwise_BN/gamma"}, {"dtype": "float32", "shape": [192], "name": "block_4_depthwise_BN/beta"}, {"dtype": "float32", "shape": [1, 1, 192, 32], "name": "block_4_project/kernel"}, {"dtype": "float32", "shape": [32], "name": "block_4_project_BN/gamma"}, {"dtype": "float32", "shape": [32], "name": "block_4_project_BN/beta"}, {"dtype": "float32", "shape": [1, 1, 32, 192], "name": "block_5_expand/kernel"}, {"dtype": "float32", "shape": [192], "name": "block_5_expand_BN/gamma"}, {"dtype": "float32", "shape": [192], "name": "block_5_expand_BN/beta"}, {"dtype": "float32", "shape": [3, 3, 192, 1], "name": "block_5_depthwise/depthwise_kernel"}, {"dtype": "float32", "shape": [192], "name": "block_5_depthwise_BN/gamma"}, {"dtype": "float32", "shape": [192], "name": "block_5_depthwise_BN/beta"}, {"dtype": "float32", "shape": [1, 1, 192, 32], "name": "block_5_project/kernel"}, {"dtype": "float32", "shape": [32], "name": "block_5_project_BN/gamma"}, {"dtype": "float32", "shape": [32], "name": "block_5_project_BN/beta"}, {"dtype": "float32", "shape": [1, 1, 32, 192], "name": "block_6_expand/kernel"}, {"dtype": "float32", "shape": [192], "name": "block_6_expand_BN/gamma"}, {"dtype": "float32", "shape": [192], "name": "block_6_expand_BN/beta"}, {"dtype": "float32", "shape": [3, 3, 192, 1], "name": "block_6_depthwise/depthwise_kernel"}, {"dtype": "float32", "shape": [192], "name": "block_6_depthwise_BN/gamma"}, {"dtype": "float32", "shape": [192], "name": "block_6_depthwise_BN/beta"}, {"dtype": "float32", "shape": [1, 1, 192, 64], "name": "block_6_project/kernel"}, {"dtype": "float32", "shape": [64], "name": "block_6_project_BN/gamma"}, {"dtype": "float32", "shape": [64], "name": "block_6_project_BN/beta"}, {"dtype": "float32", "shape": [1, 1, 64, 384], "name": "block_7_expand/kernel"}, {"dtype": "float32", "shape": [384], "name": "block_7_expand_BN/gamma"}, {"dtype": "float32", "shape": [384], "name": "block_7_expand_BN/beta"}, {"dtype": "float32", "shape": [3, 3, 384, 1], "name": "block_7_depthwise/depthwise_kernel"}, {"dtype": "float32", "shape": [384], "name": "block_7_depthwise_BN/gamma"}, {"dtype": "float32", "shape": [384], "name": "block_7_depthwise_BN/beta"}, {"dtype": "float32", "shape": [1, 1, 384, 64], "name": "block_7_project/kernel"}, {"dtype": "float32", "shape": [64], "name": "block_7_project_BN/gamma"}, {"dtype": "float32", "shape": [64], "name": "block_7_project_BN/beta"}, {"dtype": "float32", "shape": [1, 1, 64, 384], "name": "block_8_expand/kernel"}, {"dtype": "float32", "shape": [384], "name": "block_8_expand_BN/gamma"}, {"dtype": "float32", "shape": [384], "name": "block_8_expand_BN/beta"}, {"dtype": "float32", "shape": [3, 3, 384, 1], "name": "block_8_depthwise/depthwise_kernel"}, {"dtype": "float32", "shape": [384], "name": "block_8_depthwise_BN/gamma"}, {"dtype": "float32", "shape": [384], "name": "block_8_depthwise_BN/beta"}, {"dtype": "float32", "shape": [1, 1, 384, 64], "name": "block_8_project/kernel"}, {"dtype": "float32", "shape": [64], "name": "block_8_project_BN/gamma"}, {"dtype": "float32", "shape": [64], "name": "block_8_project_BN/beta"}, {"dtype": "float32", "shape": [1, 1, 64, 384], "name": "block_9_expand/kernel"}, {"dtype": "float32", "shape": [384], "name": "block_9_expand_BN/gamma"}, {"dtype": "float32", "shape": [384], "name": "block_9_expand_BN/beta"}, {"dtype": "float32", "shape": [3, 3, 384, 1], "name": "block_9_depthwise/depthwise_kernel"}, {"dtype": "float32", "shape": [384], "name": "block_9_depthwise_BN/gamma"}, {"dtype": "float32", "shape": [384], "name": "block_9_depthwise_BN/beta"}, {"dtype": "float32", "shape": [1, 1, 384, 64], "name": "block_9_project/kernel"}, {"dtype": "float32", "shape": [64], "name": "block_9_project_BN/gamma"}, {"dtype": "float32", "shape": [64], "name": "block_9_project_BN/beta"}, {"dtype": "float32", "shape": [1, 1, 64, 384], "name": "block_10_expand/kernel"}, {"dtype": "float32", "shape": [384], "name": "block_10_expand_BN/gamma"}, {"dtype": "float32", "shape": [384], "name": "block_10_expand_BN/beta"}, {"dtype": "float32", "shape": [3, 3, 384, 1], "name": "block_10_depthwise/depthwise_kernel"}, {"dtype": "float32", "shape": [384], "name": "block_10_depthwise_BN/gamma"}, {"dtype": "float32", "shape": [384], "name": "block_10_depthwise_BN/beta"}, {"dtype": "float32", "shape": [1, 1, 384, 96], "name": "block_10_project/kernel"}, {"dtype": "float32", "shape": [96], "name": "block_10_project_BN/gamma"}, {"dtype": "float32", "shape": [96], "name": "block_10_project_BN/beta"}, {"dtype": "float32", "shape": [1, 1, 96, 576], "name": "block_11_expand/kernel"}, {"dtype": "float32", "shape": [576], "name": "block_11_expand_BN/gamma"}, {"dtype": "float32", "shape": [576], "name": "block_11_expand_BN/beta"}, {"dtype": "float32", "shape": [3, 3, 576, 1], "name": "block_11_depthwise/depthwise_kernel"}, {"dtype": "float32", "shape": [576], "name": "block_11_depthwise_BN/gamma"}, {"dtype": "float32", "shape": [576], "name": "block_11_depthwise_BN/beta"}, {"dtype": "float32", "shape": [1, 1, 576, 96], "name": "block_11_project/kernel"}, {"dtype": "float32", "shape": [96], "name": "block_11_project_BN/gamma"}, {"dtype": "float32", "shape": [96], "name": "block_11_project_BN/beta"}, {"dtype": "float32", "shape": [1, 1, 96, 576], "name": "block_12_expand/kernel"}, {"dtype": "float32", "shape": [576], "name": "block_12_expand_BN/gamma"}, {"dtype": "float32", "shape": [576], "name": "block_12_expand_BN/beta"}, {"dtype": "float32", "shape": [3, 3, 576, 1], "name": "block_12_depthwise/depthwise_kernel"}, {"dtype": "float32", "shape": [576], "name": "block_12_depthwise_BN/gamma"}, {"dtype": "float32", "shape": [576], "name": "block_12_depthwise_BN/beta"}, {"dtype": "float32", "shape": [1, 1, 576, 96], "name": "block_12_project/kernel"}, {"dtype": "float32", "shape": [96], "name": "block_12_project_BN/gamma"}, {"dtype": "float32", "shape": [96], "name": "block_12_project_BN/beta"}, {"dtype": "float32", "shape": [1, 1, 96, 576], "name": "block_13_expand/kernel"}, {"dtype": "float32", "shape": [576], "name": "block_13_expand_BN/gamma"}, {"dtype": "float32", "shape": [576], "name": "block_13_expand_BN/beta"}, {"dtype": "float32", "shape": [3, 3, 576, 1], "name": "block_13_depthwise/depthwise_kernel"}, {"dtype": "float32", "shape": [576], "name": "block_13_depthwise_BN/gamma"}, {"dtype": "float32", "shape": [576], "name": "block_13_depthwise_BN/beta"}, {"dtype": "float32", "shape": [1, 1, 576, 160], "name": "block_13_project/kernel"}, {"dtype": "float32", "shape": [160], "name": "block_13_project_BN/gamma"}, {"dtype": "float32", "shape": [160], "name": "block_13_project_BN/beta"}, {"dtype": "float32", "shape": [1, 1, 160, 960], "name": "block_14_expand/kernel"}, {"dtype": "float32", "shape": [960], "name": "block_14_expand_BN/gamma"}, {"dtype": "float32", "shape": [960], "name": "block_14_expand_BN/beta"}, {"dtype": "float32", "shape": [3, 3, 960, 1], "name": "block_14_depthwise/depthwise_kernel"}, {"dtype": "float32", "shape": [960], "name": "block_14_depthwise_BN/gamma"}, {"dtype": "float32", "shape": [960], "name": "block_14_depthwise_BN/beta"}, {"dtype": "float32", "shape": [1, 1, 960, 160], "name": "block_14_project/kernel"}, {"dtype": "float32", "shape": [160], "name": "block_14_project_BN/gamma"}, {"dtype": "float32", "shape": [160], "name": "block_14_project_BN/beta"}, {"dtype": "float32", "shape": [1, 1, 160, 960], "name": "block_15_expand/kernel"}, {"dtype": "float32", "shape": [960], "name": "block_15_expand_BN/gamma"}, {"dtype": "float32", "shape": [960], "name": "block_15_expand_BN/beta"}, {"dtype": "float32", "shape": [3, 3, 960, 1], "name": "block_15_depthwise/depthwise_kernel"}, {"dtype": "float32", "shape": [960], "name": "block_15_depthwise_BN/gamma"}, {"dtype": "float32", "shape": [960], "name": "block_15_depthwise_BN/beta"}, {"dtype": "float32", "shape": [1, 1, 960, 160], "name": "block_15_project/kernel"}, {"dtype": "float32", "shape": [160], "name": "block_15_project_BN/gamma"}, {"dtype": "float32", "shape": [160], "name": "block_15_project_BN/beta"}, {"dtype": "float32", "shape": [1, 1, 160, 960], "name": "block_16_expand/kernel"}, {"dtype": "float32", "shape": [960], "name": "block_16_expand_BN/gamma"}, {"dtype": "float32", "shape": [960], "name": "block_16_expand_BN/beta"}, {"dtype": "float32", "shape": [3, 3, 960, 1], "name": "block_16_depthwise/depthwise_kernel"}, {"dtype": "float32", "shape": [960], "name": "block_16_depthwise_BN/gamma"}, {"dtype": "float32", "shape": [960], "name": "block_16_depthwise_BN/beta"}, {"dtype": "float32", "shape": [1, 1, 960, 320], "name": "block_16_project/kernel"}, {"dtype": "float32", "shape": [320], "name": "block_16_project_BN/gamma"}, {"dtype": "float32", "shape": [320], "name": "block_16_project_BN/beta"}, {"dtype": "float32", "shape": [1, 1, 320, 1280], "name": "Conv_1/kernel"}, {"dtype": "float32", "shape": [1280], "name": "Conv_1_bn/gamma"}, {"dtype": "float32", "shape": [1280], "name": "Conv_1_bn/beta"}, {"dtype": "float32", "shape": [32], "name": "bn_Conv1/moving_mean"}, {"dtype": "float32", "shape": [32], "name": "bn_Conv1/moving_variance"}, {"dtype": "float32", "shape": [32], "name": "expanded_conv_depthwise_BN/moving_mean"}, {"dtype": "float32", "shape": [32], "name": "expanded_conv_depthwise_BN/moving_variance"}, {"dtype": "float32", "shape": [16], "name": "expanded_conv_project_BN/moving_mean"}, {"dtype": "float32", "shape": [16], "name": "expanded_conv_project_BN/moving_variance"}, {"dtype": "float32", "shape": [96], "name": "block_1_expand_BN/moving_mean"}, {"dtype": "float32", "shape": [96], "name": "block_1_expand_BN/moving_variance"}, {"dtype": "float32", "shape": [96], "name": "block_1_depthwise_BN/moving_mean"}, {"dtype": "float32", "shape": [96], "name": "block_1_depthwise_BN/moving_variance"}, {"dtype": "float32", "shape": [24], "name": "block_1_project_BN/moving_mean"}, {"dtype": "float32", "shape": [24], "name": "block_1_project_BN/moving_variance"}, {"dtype": "float32", "shape": [144], "name": "block_2_expand_BN/moving_mean"}, {"dtype": "float32", "shape": [144], "name": "block_2_expand_BN/moving_variance"}, {"dtype": "float32", "shape": [144], "name": "block_2_depthwise_BN/moving_mean"}, {"dtype": "float32", "shape": [144], "name": "block_2_depthwise_BN/moving_variance"}, {"dtype": "float32", "shape": [24], "name": "block_2_project_BN/moving_mean"}, {"dtype": "float32", "shape": [24], "name": "block_2_project_BN/moving_variance"}, {"dtype": "float32", "shape": [144], "name": "block_3_expand_BN/moving_mean"}, {"dtype": "float32", "shape": [144], "name": "block_3_expand_BN/moving_variance"}, {"dtype": "float32", "shape": [144], "name": "block_3_depthwise_BN/moving_mean"}, {"dtype": "float32", "shape": [144], "name": "block_3_depthwise_BN/moving_variance"}, {"dtype": "float32", "shape": [32], "name": "block_3_project_BN/moving_mean"}, {"dtype": "float32", "shape": [32], "name": "block_3_project_BN/moving_variance"}, {"dtype": "float32", "shape": [192], "name": "block_4_expand_BN/moving_mean"}, {"dtype": "float32", "shape": [192], "name": "block_4_expand_BN/moving_variance"}, {"dtype": "float32", "shape": [192], "name": "block_4_depthwise_BN/moving_mean"}, {"dtype": "float32", "shape": [192], "name": "block_4_depthwise_BN/moving_variance"}, {"dtype": "float32", "shape": [32], "name": "block_4_project_BN/moving_mean"}, {"dtype": "float32", "shape": [32], "name": "block_4_project_BN/moving_variance"}, {"dtype": "float32", "shape": [192], "name": "block_5_expand_BN/moving_mean"}, {"dtype": "float32", "shape": [192], "name": "block_5_expand_BN/moving_variance"}, {"dtype": "float32", "shape": [192], "name": "block_5_depthwise_BN/moving_mean"}, {"dtype": "float32", "shape": [192], "name": "block_5_depthwise_BN/moving_variance"}, {"dtype": "float32", "shape": [32], "name": "block_5_project_BN/moving_mean"}, {"dtype": "float32", "shape": [32], "name": "block_5_project_BN/moving_variance"}, {"dtype": "float32", "shape": [192], "name": "block_6_expand_BN/moving_mean"}, {"dtype": "float32", "shape": [192], "name": "block_6_expand_BN/moving_variance"}, {"dtype": "float32", "shape": [192], "name": "block_6_depthwise_BN/moving_mean"}, {"dtype": "float32", "shape": [192], "name": "block_6_depthwise_BN/moving_variance"}, {"dtype": "float32", "shape": [64], "name": "block_6_project_BN/moving_mean"}, {"dtype": "float32", "shape": [64], "name": "block_6_project_BN/moving_variance"}, {"dtype": "float32", "shape": [384], "name": "block_7_expand_BN/moving_mean"}, {"dtype": "float32", "shape": [384], "name": "block_7_expand_BN/moving_variance"}, {"dtype": "float32", "shape": [384], "name": "block_7_depthwise_BN/moving_mean"}, {"dtype": "float32", "shape": [384], "name": "block_7_depthwise_BN/moving_variance"}, {"dtype": "float32", "shape": [64], "name": "block_7_project_BN/moving_mean"}, {"dtype": "float32", "shape": [64], "name": "block_7_project_BN/moving_variance"}, {"dtype": "float32", "shape": [384], "name": "block_8_expand_BN/moving_mean"}, {"dtype": "float32", "shape": [384], "name": "block_8_expand_BN/moving_variance"}, {"dtype": "float32", "shape": [384], "name": "block_8_depthwise_BN/moving_mean"}, {"dtype": "float32", "shape": [384], "name": "block_8_depthwise_BN/moving_variance"}, {"dtype": "float32", "shape": [64], "name": "block_8_project_BN/moving_mean"}, {"dtype": "float32", "shape": [64], "name": "block_8_project_BN/moving_variance"}, {"dtype": "float32", "shape": [384], "name": "block_9_expand_BN/moving_mean"}, {"dtype": "float32", "shape": [384], "name": "block_9_expand_BN/moving_variance"}, {"dtype": "float32", "shape": [384], "name": "block_9_depthwise_BN/moving_mean"}, {"dtype": "float32", "shape": [384], "name": "block_9_depthwise_BN/moving_variance"}, {"dtype": "float32", "shape": [64], "name": "block_9_project_BN/moving_mean"}, {"dtype": "float32", "shape": [64], "name": "block_9_project_BN/moving_variance"}, {"dtype": "float32", "shape": [384], "name": "block_10_expand_BN/moving_mean"}, {"dtype": "float32", "shape": [384], "name": "block_10_expand_BN/moving_variance"}, {"dtype": "float32", "shape": [384], "name": "block_10_depthwise_BN/moving_mean"}, {"dtype": "float32", "shape": [384], "name": "block_10_depthwise_BN/moving_variance"}, {"dtype": "float32", "shape": [96], "name": "block_10_project_BN/moving_mean"}, {"dtype": "float32", "shape": [96], "name": "block_10_project_BN/moving_variance"}, {"dtype": "float32", "shape": [576], "name": "block_11_expand_BN/moving_mean"}, {"dtype": "float32", "shape": [576], "name": "block_11_expand_BN/moving_variance"}, {"dtype": "float32", "shape": [576], "name": "block_11_depthwise_BN/moving_mean"}, {"dtype": "float32", "shape": [576], "name": "block_11_depthwise_BN/moving_variance"}, {"dtype": "float32", "shape": [96], "name": "block_11_project_BN/moving_mean"}, {"dtype": "float32", "shape": [96], "name": "block_11_project_BN/moving_variance"}, {"dtype": "float32", "shape": [576], "name": "block_12_expand_BN/moving_mean"}, {"dtype": "float32", "shape": [576], "name": "block_12_expand_BN/moving_variance"}, {"dtype": "float32", "shape": [576], "name": "block_12_depthwise_BN/moving_mean"}, {"dtype": "float32", "shape": [576], "name": "block_12_depthwise_BN/moving_variance"}, {"dtype": "float32", "shape": [96], "name": "block_12_project_BN/moving_mean"}, {"dtype": "float32", "shape": [96], "name": "block_12_project_BN/moving_variance"}, {"dtype": "float32", "shape": [576], "name": "block_13_expand_BN/moving_mean"}, {"dtype": "float32", "shape": [576], "name": "block_13_expand_BN/moving_variance"}, {"dtype": "float32", "shape": [576], "name": "block_13_depthwise_BN/moving_mean"}, {"dtype": "float32", "shape": [576], "name": "block_13_depthwise_BN/moving_variance"}, {"dtype": "float32", "shape": [160], "name": "block_13_project_BN/moving_mean"}, {"dtype": "float32", "shape": [160], "name": "block_13_project_BN/moving_variance"}, {"dtype": "float32", "shape": [960], "name": "block_14_expand_BN/moving_mean"}, {"dtype": "float32", "shape": [960], "name": "block_14_expand_BN/moving_variance"}, {"dtype": "float32", "shape": [960], "name": "block_14_depthwise_BN/moving_mean"}, {"dtype": "float32", "shape": [960], "name": "block_14_depthwise_BN/moving_variance"}, {"dtype": "float32", "shape": [160], "name": "block_14_project_BN/moving_mean"}, {"dtype": "float32", "shape": [160], "name": "block_14_project_BN/moving_variance"}, {"dtype": "float32", "shape": [960], "name": "block_15_expand_BN/moving_mean"}, {"dtype": "float32", "shape": [960], "name": "block_15_expand_BN/moving_variance"}, {"dtype": "float32", "shape": [960], "name": "block_15_depthwise_BN/moving_mean"}, {"dtype": "float32", "shape": [960], "name": "block_15_depthwise_BN/moving_variance"}, {"dtype": "float32", "shape": [160], "name": "block_15_project_BN/moving_mean"}, {"dtype": "float32", "shape": [160], "name": "block_15_project_BN/moving_variance"}, {"dtype": "float32", "shape": [960], "name": "block_16_expand_BN/moving_mean"}, {"dtype": "float32", "shape": [960], "name": "block_16_expand_BN/moving_variance"}, {"dtype": "float32", "shape": [960], "name": "block_16_depthwise_BN/moving_mean"}, {"dtype": "float32", "shape": [960], "name": "block_16_depthwise_BN/moving_variance"}, {"dtype": "float32", "shape": [320], "name": "block_16_project_BN/moving_mean"}, {"dtype": "float32", "shape": [320], "name": "block_16_project_BN/moving_variance"}, {"dtype": "float32", "shape": [1280], "name": "Conv_1_bn/moving_mean"}, {"dtype": "float32", "shape": [1280], "name": "Conv_1_bn/moving_variance"}]}]}